duration_predictor.pth (torch, 62429 bytes, 19 tensors)

network.0.weight f4 [128, 17]
0	0xbea83954	-0.32856238
1	0xbe805fae	-0.25072998
2	0x3eda55fb	0.42643723
3	0x3cfe61d5	0.03105251
4	0x3ecefea9	0.40428665
5	0x3d3c3857	0.045952167
6	0xbee23768	-0.44182897
7	0x3dbe0119	0.09277553
8	0xbceaac4c	-0.02864661
9	0x3e57177e	0.21005055
10	0x3e172bfa	0.1476287
11	0xbdc3efc9	-0.0956722
12	0x3dccfb25	0.100088395
13	0x3c601f12	0.013679283
14	0x3ed33214	0.41249144
15	0x3e27e369	0.16395344
16	0x3d91a232	0.071110144
17	0x3e9ecf5d	0.3101758
18	0x3dd3e775	0.10346881
19	0xbdafa32c	-0.085760444
20	0x3d2e02c3	0.042483103
21	0x3ee32f4a	0.44372016
22	0x3d07082c	0.032966778
23	0x3e94d935	0.29071966
24	0x3e97346a	0.29532176
25	0x3ead9357	0.33901474
26	0xbc5da110	-0.01352717
27	0xbe4a77c7	-0.19772254
28	0x3e0a1daf	0.13487886
29	0x3eb874fd	0.36026755
30	0xbcb2a5c0	-0.021807551
31	0xbe376b93	-0.1791213
32	0xbc6a358e	-0.014294995
33	0x3e9592fc	0.29213703
34	0xbf63b25e	-0.8894404
35	0xbe11e34f	-0.14246868
36	0xbdf4b25c	-0.11948082
37	0xbe0d5e7c	-0.13805574
38	0xbf07b00e	-0.53003013
39	0x3e8522ed	0.2600321
40	0xbeeb7ea2	-0.4599505
41	0x3dc6e18c	0.097109884
42	0x3d8227a0	0.06355214
43	0x3ec99cf5	0.3937756
44	0xbe3382bb	-0.17530338
45	0x3e657846	0.22409162
46	0x3cd64702	0.026156906
47	0x3db534c3	0.08847954
48	0x3d9b10bf	0.075715534
49	0x3d20b1c7	0.03923204
50	0xbeb88bfd	-0.36044303
51	0x3e7f7aab	0.24949138
52	0xbeae544b	-0.34048685
53	0xbef28e30	-0.47374105
54	0x3da37a31	0.079822905
55	0xbe79b5ff	-0.24385832
56	0xbea4265f	-0.32060525
57	0x3ea7abf0	0.32748365
58	0xbeb7277d	-0.35772315
59	0xbcb7b41c	-0.02242475
60	0x3e1d4718	0.15359151
61	0x3baa4efe	0.005197405
62	0xbd69f37d	-0.057116974
63	0xbdc16872	-0.094437495
64	0xbaf39f4c	-0.0018586903
65	0xbd3d1786	-0.04616501
66	0x3e13ff21	0.14452793
67	0x3e627fd8	0.22119081
68	0xbe764fbc	-0.24053854
69	0xbe966548	-0.29374146
70	0xbda896fa	-0.082319215
71	0x3e9cc11e	0.30616087
72	0xbddd00d2	-0.10791172
73	0x3ef095e8	0.4698937
74	0x3eb6a88b	0.35675463
75	0xbd6a35e9	-0.05718032
76	0xbccc53e6	-0.02494235
77	0x3e34c323	0.17652564
78	0xbde9d5d3	-0.11417737
79	0x3dbed392	0.093176976
80	0x3dffabe1	0.12483955
81	0x3d2f8e71	0.042860452
82	0xbe57191b	-0.2100567
83	0x3ec6f77c	0.3886069
84	0xbe231770	-0.1592691
85	0xbeb55a24	-0.35420334
86	0x3edb295d	0.42804995
87	0xbd5d3955	-0.054009754
88	0xbf22e189	-0.6362539
89	0x3ec86ad1	0.39143994
90	0xbe2d5610	-0.16927361
91	0x3d9aa2f8	0.07550615
92	0x3ecec956	0.40387982
93	0x3c150295	0.009094854
94	0x3d8faf30	0.07015836
95	0x3e82e168	0.25562596
96	0x3dfb937f	0.12283992
97	0xbc13fab5	-0.009031941
98	0x3bb52bd1	0.005528905
99	0xbde48085	-0.11157326
100	0xbde9213b	-0.11383291
101	0x3e24d3c3	0.16096406
102	0xbeebc191	-0.46046117
103	0xbe50f5cf	-0.20406269
104	0xbdd32a26	-0.103107736
105	0x3e74ddad	0.23912688
106	0x3efe65c2	0.4968701
107	0xbeb2540d	-0.3482975
108	0x3efe91b7	0.49720547
109	0xbdf1ece8	-0.118127644
110	0xbd95e733	-0.073194884
111	0xbd227478	-0.039661855
112	0xbd4ba340	-0.049716234
113	0x3e321fda	0.17394963
114	0xbe349bd1	-0.17637564
115	0xbcef8939	-0.029240238
116	0xbd81c97a	-0.06337257
117	0xbe6e7ecb	-0.23290555
118	0x3d5bd756	0.053672157
119	0xbde85421	-0.11344171
120	0xbdfadeee	-0.12249552
121	0xbf1493c8	-0.58037996
122	0x3e1db244	0.15400034
123	0xbe16b11a	-0.14715996
124	0xbe2ddc41	-0.16978551
125	0x3e9cf2d8	0.30654025
126	0x3cfd0ac1	0.030888917
127	0x3d54d3f3	0.051959943
128	0x3e3f50b0	0.18683124
129	0x3bd14dc8	0.006387446
130	0x3b5a86b7	0.0033344456
131	0xbd9eb55b	-0.077494346
132	0xbeb079e0	-0.34467983
133	0xbd77528d	-0.06038146
134	0x3ea02129	0.312753
135	0x3e22b4ce	0.15889284
136	0xbf5a33d3	-0.8523533
137	0xbe66d00f	-0.22540306
138	0x3ecf45e8	0.40483022
139	0x3e758d4b	0.2397968
140	0x3f033aaa	0.5126139
141	0x3e3e1be4	0.18565327
142	0xbdbf26ca	-0.0933357
143	0xbe054a9d	-0.13016744
144	0xbc91c477	-0.017793877
145	0xbe416cbf	-0.1888914
146	0xbe015b55	-0.12632497
147	0x3e446565	0.19179304
148	0xbcfd8331	-0.030946346
149	0x3b06da11	0.0020576755
150	0x3e631452	0.2217572
151	0x3e03e783	0.12881283
152	0x3baf7fc6	0.005355808
153	0x3e837f34	0.25682986
154	0x3f157e21	0.5839558
155	0xbe9515c6	-0.29118174
156	0xbed8deb3	-0.42357406
157	0x3e9c8ba6	0.30575293
158	0xbd97c948	-0.07411438
159	0xbdccafaf	-0.099944465
160	0x3ed7f101	0.4217606
161	0xbe6d056b	-0.23146598
162	0xbe525dee	-0.20543644
163	0xbd45e252	-0.04831154
164	0x3d0c7bca	0.034297742
165	0xbe8d93fe	-0.27651972
166	0xbb376a0e	-0.0027986798
167	0xbcd1dd26	-0.025618147
168	0x3dc6a802	0.09700014
169	0x3e270371	0.16309907
170	0x3e5fb999	0.21848144
171	0xbc128ff6	-0.008945456
172	0xbe7e2417	-0.24818455
173	0xbdf39cf5	-0.118951716
174	0xbdef4888	-0.11683756
175	0xbd390259	-0.045168255
176	0xbaeb6d00	-0.0017961562
177	0x3e7a9b15	0.24473222
178	0x3dbb5ecc	0.091489404
179	0x3d45bd52	0.048276253
180	0xbe3325e9	-0.1749493
181	0x3e4e93cc	0.20173568
182	0xbd08129c	-0.033220872
183	0xbab8e74c	-0.0014107018
184	0x3ee2b05c	0.44275177
185	0xbe34e1c9	-0.17664255
186	0xbec624d4	-0.38699973
187	0x3e7127e5	0.23550375
188	0xbe014d11	-0.12627055
189	0xbdbe8fe0	-0.09304786
190	0xbd056491	-0.03256661
191	0x3d26b799	0.040702436
192	0xbe7a47e2	-0.24441484
193	0x3db33600	0.08750534
194	0x3cbf89d0	0.023381144
195	0xbe0bba4c	-0.13645285
196	0x3e825032	0.2545181
197	0xbe0e8ece	-0.13921663
198	0x3eadd8be	0.33954424
199	0xbec05dc6	-0.37571543
200	0x3e910be2	0.28329378
201	0x3e2d1eb4	0.16906244
202	0x3e9636ca	0.29338676
203	0x3eb3bcf1	0.35105088
204	0x3ee3b3ae	0.44473022
205	0xbd8be23b	-0.068302594
206	0x3e011a9d	0.12607808
207	0xbe12010f	-0.14258216
208	0x3eb72693	0.35771617
209	0x3e6ab6ca	0.22921291
210	0xbe26947d	-0.16267581
211	0x3e8cbbbe	0.27486986
212	0x3e1a2e3e	0.15056702
213	0xbc7d1f19	-0.015449309
214	0xbe07b36b	-0.13252036
215	0x3de1a1a5	0.110171594
216	0x3d32d107	0.043656375
217	0xbaf07c80	-0.0018347651
218	0x3edbd40f	0.42935225
219	0xbe246ab7	-0.16056333
220	0xbeb7f562	-0.359294
221	0xbe3492e8	-0.17634165
222	0xbf2b0606	-0.66806066
223	0x3e800c7a	0.2500952
224	0x3d865b29	0.06560356
225	0xbeb2b5d4	-0.3490435
226	0x3e4a36e3	0.197475
227	0xbdfda178	-0.12384313
228	0xbeecea10	-0.46272326
229	0xbd1a5db9	-0.037687037
230	0xbd8e0f2f	-0.0693649
231	0xbe00ef85	-0.1259137
232	0x3d43238b	0.04764132
233	0x3cd017dc	0.025402002
234	0xbcafb8c6	-0.021450412
235	0x3d110fef	0.035415586
236	0x3cc8dcf7	0.024519427
237	0xbe0607fc	-0.13088983
238	0xbeaf9c93	-0.34299144
239	0xbd822414	-0.063545376
240	0xbf07b7f2	-0.53015053
241	0xbe85f501	-0.26163486
242	0x3eb42b6f	0.35189387
243	0xbd90eb5f	-0.070761435
244	0x3dbdc832	0.092667
245	0xbe0c5acd	-0.13706513
246	0xbdfad176	-0.12246983
247	0x3ca1fb4f	0.019773154
248	0x3d48d53b	0.049031477
249	0xbdc267e5	-0.094924726
250	0x3dd68378	0.104742944
251	0x3b7cb9f7	0.0038562992
252	0x3d98810a	0.07446487
253	0x3e442e81	0.19158365
254	0x3eba1a16	0.36348027
255	0xbea1d070	-0.31604338

network.0.bias f4 [128]
0	0xbe87654a	-0.26444465
1	0xbdf3e99a	-0.1190979
2	0xbdbc3fa2	-0.091918245
3	0xbec7eb38	-0.39046645
4	0xbf056ca7	-0.52118915
5	0xbeb3c32d	-0.35109845
6	0xbe2a794c	-0.16647834
7	0xbeb0a26e	-0.34498924
8	0xbe90b8c8	-0.28265977
9	0x3d6064a2	0.05478347
10	0xbf01e46e	-0.5073918
11	0x3da35b57	0.07976406
12	0xbe873ba0	-0.26412678
13	0xbebd68dc	-0.36994064
14	0xbf14244a	-0.5786787
15	0xbe9764f3	-0.29569206
16	0x3f40c6d6	0.753034
17	0xbdae366a	-0.085064724
18	0xbe80c7fb	-0.25152573
19	0xbe756e46	-0.23967847
20	0xbf146639	-0.5796848
21	0xbdeb660c	-0.11494073
22	0xbf21d6cd	-0.63218385
23	0xbf0ea0ed	-0.55714303
24	0x3d0835c8	0.033254415
25	0xbeaf161e	-0.34196562
26	0xbea5e1c8	-0.3239882
27	0x3e32c4a5	0.17457826
28	0x3c952431	0.018205734
29	0xbd238b7b	-0.03992794
30	0xbd4d6183	-0.050141823
31	0xbef315bd	-0.47477522
32	0xbdc8ccf2	-0.09804715
33	0x3ebf38a6	0.37347907
34	0xbeccda56	-0.40010327
35	0x3ccf9819	0.02534108
36	0xbe585cb0	-0.21129107
37	0xbee5fa1d	-0.44917384
38	0xbd6348f9	-0.055489514
39	0xbde29d04	-0.110651046
40	0xbe8e8d70	-0.27842283
41	0x3ee0e515	0.43924776
42	0xbee2a4c1	-0.44266322
43	0xbde81a70	-0.113331676
44	0xbd24b0f1	-0.040207807
45	0xbe3f592a	-0.18686357
46	0xbf04a70a	-0.5181738
47	0xbee7e4ad	-0.45291653
48	0xbee082d0	-0.43849802
49	0xbece9e27	-0.40355036
50	0xbec2588d	-0.37958184
51	0xbea31a2e	-0.3185591
52	0xbefe314a	-0.4964698
53	0x3e1d62b5	0.15369685
54	0xbf076de6	-0.52902067
55	0xbc6c5383	-0.014424208
56	0xbe19a7f2	-0.15005472
57	0xbec94764	-0.3931228
58	0xbead78da	-0.33881265
59	0xbf015d54	-0.5053303
60	0xbda203a3	-0.0791085
61	0xbc29044c	-0.010315966
62	0xbef816cc	-0.48454893
63	0x3e30705e	0.17230365
64	0xbd835844	-0.0641332
65	0xbedecc40	-0.43515205
66	0xbf0536f1	-0.5203696
67	0xbee204ec	-0.4414438
68	0x3e508fce	0.20367357
69	0x3e03e504	0.12880331
70	0xbe2181b4	-0.15772134
71	0xbee9eb21	-0.45687202
72	0xbe37cd19	-0.17949332
73	0xbd1e344a	-0.038624085
74	0x3ec75ca3	0.38937864
75	0xbe1dff06	-0.15429315
76	0xbeed1d4a	-0.46311408
77	0xbe918f0d	-0.28429452
78	0xbe778379	-0.24171247
79	0xbeaebaea	-0.3412698
80	0xbe5092f8	-0.20368564
81	0xbdd20d50	-0.102564454
82	0xbf25c960	-0.647604
83	0xbc0c40e4	-0.008560393
84	0xbeaacf90	-0.33361483
85	0xbe93905a	-0.2882107
86	0x3e7ebead	0.24877425
87	0xbe638d01	-0.22221757
88	0x3e915d30	0.2839141
89	0xbecb76cb	-0.3973907
90	0x3dafd100	0.085847855
91	0xbc9f825f	-0.019471345
92	0xbea07d83	-0.31345758
93	0xbec773ae	-0.38955444
94	0x3b152ba1	0.00227616
95	0xbe0d9dbf	-0.13829707
96	0x3d88f7e2	0.06687905
97	0xbf029660	-0.51010704
98	0x3cf01bf8	0.029310212
99	0xbee6fb85	-0.4511377
100	0xbe4e46ab	-0.20144145
101	0xbe4c0ae8	-0.19926035
102	0x3c781255	0.015141089
103	0x3eb2cf17	0.34923622
104	0xbe12fc7e	-0.1435413
105	0xbedd24b1	-0.43192056
106	0xbf1929f8	-0.59829664
107	0x3eea9685	0.45817962
108	0xbe4248e9	-0.18973126
109	0xbf25b8c0	-0.6473503
110	0xbeae1600	-0.3400116
111	0xbe884047	-0.2661154
112	0x3e053501	0.130085
113	0xbedafc2f	-0.42770526
114	0xbea3e28e	-0.32008785
115	0xbede7ddb	-0.43455395
116	0xbeddba3f	-0.43306157
117	0xbece1432	-0.40249783
118	0xbed1e801	-0.40997317
119	0xbf1ccfdc	-0.6125467
120	0xbe997128	-0.29969144
121	0xbeac5eeb	-0.33666167
122	0xbf0836c8	-0.5320859
123	0xbee42b6b	-0.44564375
124	0xbedda689	-0.4329112
125	0xbed67a38	-0.4189012
126	0x3e7b690d	0.24551792
127	0xbd17ee24	-0.037092343

network.2.weight f4 [128]
0	0x3f6c0d70	0.92208004
1	0x3f0663f6	0.5249628
2	0x3f3aa045	0.729008
3	0x3f993774	1.1970048
4	0x3f8790ed	1.0591103
5	0x3fa6b6d6	1.3024547
6	0x3f2cc89f	0.67493623
7	0x3f80ffdb	1.0078081
8	0x3f8ae524	1.0851178
9	0x3f4f6f4d	0.81029207
10	0x3f93fc62	1.1561396
11	0x3ee0e6f0	0.4392619
12	0x3f8cac54	1.099009
13	0x3f9236da	1.1422989
14	0x3fa6fef7	1.3046559
15	0x3eefa9c8	0.4680922
16	0x3ed9180f	0.42401168
17	0x3f6cfeb2	0.92576134
18	0x3f7844f2	0.969802
19	0x3f9a28d4	1.204371
20	0x3faf83fa	1.3712151
21	0x3f215c7e	0.63031757
22	0x3f628cca	0.8849608
23	0x3f49287b	0.78577393
24	0x3f3b0a7d	0.7306288
25	0x3f97a751	1.1847936
26	0x3fa34eed	1.2758461
27	0x3eedd672	0.4645267
28	0x3f74c1b9	0.956081
29	0x3f2317dc	0.6370828
30	0x3f33b51f	0.70198244
31	0x3f349184	0.7053454
32	0x3f826725	1.0187727
33	0x3eeb9f85	0.4602014
34	0x3f8478d4	1.0349374
35	0x3f12d4c3	0.573559
36	0x3f78d115	0.97194034
37	0x3f102a10	0.5631418
38	0x3f08fb0e	0.5350808
39	0x3f1cd0e5	0.6125625
40	0x3eed81f8	0.4638822
41	0x3ee0ac8e	0.4388165
42	0x3f819617	1.0123929
43	0x3f1746ed	0.590926
44	0x3f515a4c	0.8177841
45	0x3f51cc51	0.8195239
46	0x3f2b6ac5	0.6695979
47	0x3f993cac	1.197164
48	0x3f2c07ec	0.6719959
49	0x3fa3c26e	1.279371
50	0x3f9d88be	1.2307355
51	0x3f851e47	1.0399865
52	0x3f71a45d	0.94391423
53	0x3f4c3219	0.7976394
54	0x3f15f7ab	0.58581036
55	0x3f4944c0	0.7862053
56	0x3ed9820c	0.4248203
57	0x3f80faaf	1.0076503
58	0x3f75ccd1	0.9601565
59	0x3fa3922e	1.2778986
60	0x3f57c7a6	0.84289014
61	0x3f58d7db	0.8470437
62	0x3f750e03	0.95724505
63	0x3f16c792	0.5889827
64	0x3ef3cd79	0.476177
65	0x3f9cfe21	1.2265054
66	0x3f46ec5a	0.77704394
67	0x3f16cfeb	0.5891101
68	0x3efec224	0.49757493
69	0x3f862412	1.0479758
70	0x3f32e809	0.6988531
71	0x3f8d835d	1.1055714
72	0x3f2765d5	0.6538976
73	0x3f2acaab	0.66715497
74	0x3e76052c	0.2402541
75	0x3f1c5e9b	0.61081856
76	0x3f84b81b	1.0368685
77	0x3f6aefb5	0.91772014
78	0x3f0953e9	0.5364366
79	0x3f1ee922	0.6207448
80	0x3f8e30c9	1.1108638
81	0x3f5236c9	0.82114846
82	0x3f79ce6e	0.9758061
83	0x3f401289	0.7502828
84	0x3f9f509e	1.2446477
85	0x3f8463e6	1.0342987
86	0x3efd16be	0.49431413
87	0x3efece33	0.49766693
88	0x3f3556ff	0.7083587
89	0x3fa3d41a	1.2799103
90	0x3f3fb242	0.74881375
91	0x3f116765	0.5679839
92	0x3f7957e7	0.97399753
93	0x3f29da0e	0.6634835
94	0x3f021b3d	0.5082281
95	0x3f722f2b	0.9460322
96	0x3f2c01db	0.6719033
97	0x3f803544	1.0016255
98	0x3f3e1cb0	0.74262524
99	0x3f92f34a	1.1480496
100	0x3f8e2843	1.1106037
101	0x3f0ecf39	0.55784947
102	0x3f11d76d	0.5696934
103	0x3f1e23aa	0.6177317
104	0x3f692e47	0.9108624
105	0x3f2d442d	0.67682153
106	0x3f6b06ed	0.9180744
107	0x3f17d4b6	0.59308946
108	0x3f287026	0.65796125
109	0x3f2ed6bf	0.68296427
110	0x3f921012	1.1411154
111	0x3f5b9d8d	0.8578728
112	0x3f164224	0.5869467
113	0x3f3c4d93	0.7355587
114	0x3f14c3d3	0.58111304
115	0x3f81032e	1.0079095
116	0x3fa080d3	1.2539314
117	0x3f1fcc3e	0.62421024
118	0x3f946273	1.1592544
119	0x3f32676e	0.6968907
120	0x3f81dd35	1.0145632
121	0x3f84334f	1.0328158
122	0x3f904395	1.1270624
123	0x3f91c98d	1.1389633
124	0x3f33e701	0.7027436
125	0x3f99a715	1.2004114
126	0x3f1502ae	0.58207214
127	0x3f287678	0.6580577

network.2.bias f4 [128]
0	0x3e990e42	0.2989369
1	0xbcaf4ae1	-0.02139801
2	0x3eee6033	0.4655777
3	0x3f0ce8d7	0.55042785
4	0x3ee52baf	0.4475989
5	0x3ef51559	0.4786785
6	0xbdec3797	-0.115340404
7	0x3f030911	0.5118571
8	0x3ef0ac9e	0.47006696
9	0x3ef92b2a	0.48665744
10	0x3ee73549	0.4515784
11	0x3e3a8365	0.18214186
12	0x3f152ea5	0.582743
13	0x3efba155	0.49146524
14	0x3ecac1aa	0.3960088
15	0x3d658be5	0.056041617
16	0xbe6282ce	-0.2212021
17	0x3e736946	0.23770627
18	0x3ef251fd	0.47328177
19	0x3f0ec46f	0.55768484
20	0x3ef92799	0.48663023
21	0x3d59800b	0.053100627
22	0x3ea62e12	0.32457024
23	0xbc8d7eb2	-0.017272327
24	0x3eeb11cf	0.45912024
25	0x3f05918d	0.5217522
26	0x3ed76eb4	0.42076647
27	0x3c3753c7	0.011189408
28	0x3f107d73	0.5644142
29	0x3df7c75f	0.12098574
30	0x3f073e02	0.5282899
31	0x3e003f17	0.12524067
32	0x3f008071	0.50195986
33	0xbec1a3ad	-0.37820187
34	0x3ec3e912	0.38263756
35	0x3cf200f1	0.029541465
36	0x3e81f1be	0.25379747
37	0x3e3f81f3	0.18701915
38	0x3ec8983c	0.39178646
39	0xbd2641da	-0.040590145
40	0x3c5716d8	0.013128005
41	0xbf161fd8	-0.5864234
42	0x3ede9e0e	0.4347996
43	0xbcb265ad	-0.021776998
44	0x3e350c98	0.17680585
45	0x3dfa2ed6	0.122159645
46	0x3df6e319	0.12055034
47	0x3f0956e1	0.5364819
48	0x3e79044f	0.2431805
49	0x3ed2a9b4	0.41145098
50	0x3f19981a	0.59997714
51	0x3f1a6063	0.60303324
52	0x3ebe27a2	0.37139612
53	0x3ec53e37	0.3852403
54	0x3d4195f5	0.04726215
55	0x3eb929c5	0.3616468
56	0xbe095158	-0.13409936
57	0x3ed76926	0.4207241
58	0x3ede6b4a	0.4344123
59	0x3f16cfb3	0.58910674
60	0x3eed7214	0.46376097
61	0x3f125c7c	0.5717237
62	0x3ef3a34c	0.47585523
63	0xbe74239e	-0.23841712
64	0x3c079962	0.008276315
65	0x3f0193d7	0.5061621
66	0x3e8460c7	0.25855085
67	0xbdc6ca43	-0.09706547
68	0xbd93f741	-0.07224894
69	0x3f028725	0.50987464
70	0x3ea4fa93	0.32222423
71	0x3ec7401c	0.389161
72	0xbd8d3ae2	-0.06895997
73	0xbab2fcab	-0.0013655623
74	0x3caa977f	0.020824192
75	0x3d93d6d0	0.072187066
76	0x3f13c4d0	0.5772219
77	0x3edb848e	0.4287457
78	0xbdcc0a3f	-0.09962892
79	0xbe99f948	-0.30073
80	0x3f0ae220	0.5425129
81	0x3eeb19e4	0.4591819
82	0x3d399852	0.04531128
83	0x3eb62bc4	0.35580266
84	0x3f086408	0.53277636
85	0x3f2745da	0.6534096
86	0xbee64e4a	-0.44981605
87	0x3e07d468	0.1326462
88	0x3e88d89f	0.2672777
89	0x3f0ecfcf	0.5578584
90	0x3f00d726	0.5032829
91	0xbef1db05	-0.4723741
92	0x3eeaedf6	0.45884675
93	0xbdd4a748	-0.10383469
94	0xbeed7055	-0.46374765
95	0x3f1f1eb8	0.6215625
96	0x3e69a71b	0.22817652
97	0x3f0d3e30	0.55173016
98	0x3f0dc8ab	0.5538432
99	0x3f00e223	0.5034506
100	0x3f09110e	0.5354165
101	0x3ca0ab8f	0.019613056
102	0x3e53568c	0.20638484
103	0xbe312a9e	-0.17301413
104	0x3f0caabe	0.5494803
105	0x3e52d84f	0.20590328
106	0xbc869a68	-0.016431049
107	0xbea89307	-0.32924673
108	0x3dc647c1	0.09681655
109	0xbdea0ec5	-0.11428598
110	0x3f123df7	0.571258
111	0x3e2ecae4	0.17069584
112	0xbed82c92	-0.42221504
113	0xbe0b0f94	-0.13580161
114	0x3d72e685	0.05930187
115	0x3eec8c68	0.4620087
116	0x3f0fef7c	0.562248
117	0xbe4cb05a	-0.19989148
118	0x3eed917f	0.46400067
119	0xbdfaaac4	-0.12239602
120	0x3f170218	0.5898757
121	0x3f06e067	0.5268616
122	0x3efcc735	0.49370733
123	0x3f0fd98e	0.5619134
124	0x3d5f771c	0.05455695
125	0x3f0af0a3	0.5427343
126	0x3df046d9	0.11732263
127	0xbeb8964f	-0.36052176

network.2.running_mean f4 [128]
0	0x3e74de5c	0.23912948
1	0x3f02f0c2	0.5114862
2	0x3f18b336	0.59648454
3	0x3e033e54	0.12816745
4	0x3e31813c	0.17334455
5	0x3e1cd05f	0.15313862
6	0x3e5decb3	0.21672325
7	0x3e10517a	0.14093581
8	0x3e650f2b	0.22369067
9	0x3ec9ba7f	0.39400098
10	0x3e037b32	0.12839964
11	0x3ed027cf	0.40655372
12	0x3e8f590e	0.2799763
13	0x3e616e35	0.22014697
14	0x3d72158c	0.05910258
15	0x3e90231f	0.28151795
16	0x3f845621	1.0338784
17	0x3ee325bb	0.44364724
18	0x3e933c6d	0.2875704
19	0x3e557b18	0.20847738
20	0x3d9931d8	0.0748021
21	0x3ec8a6fc	0.391899
22	0x3dcff173	0.10153475
23	0x3d96859c	0.07349703
24	0x3ec1d399	0.3785675
25	0x3e5f7117	0.21820484
26	0x3e3ce47a	0.18446532
27	0x3eeb0150	0.4589944
28	0x3ec46ef3	0.38365898
29	0x3ecb7970	0.39741087
30	0x3ec1f72b	0.37883887
31	0x3e39d9df	0.18149517
32	0x3f078b92	0.5294734
33	0x3f3c3f37	0.7353396
34	0x3e313c9a	0.17308274
35	0x3ef08e7d	0.4698371
36	0x3e42fb20	0.19041109
37	0x3e1995d0	0.14998555
38	0x3eb95def	0.36204478
39	0x3f1e4cbc	0.6183584
40	0x3e4cdf59	0.20007075
41	0x3f4498f2	0.76795876
42	0x3e5170c9	0.2045318
43	0x3eb28216	0.34864873
44	0x3ee7b461	0.45254806
45	0x3ea40cba	0.3204096
46	0x3e149880	0.14511299
47	0x3e08d092	0.13360813
48	0x3e3e6eea	0.18596998
49	0x3deb3a6a	0.11485751
50	0x3e3adaf1	0.18247582
51	0x3e9dde73	0.30833778
52	0x3e02d436	0.12776265
53	0x3eddb770	0.43304014
54	0x3d4c5ff0	0.04989618
55	0x3ed5f890	0.417912
56	0x3e8b3a6e	0.27193016
57	0x3e26aa47	0.16275893
58	0x3e68bda4	0.22728592
59	0x3de81752	0.11332573
60	0x3eb636cf	0.3558869
61	0x3f003553	0.50081366
62	0x3de21d7f	0.11040782
63	0x3f29cdf0	0.6632986
64	0x3f065ca6	0.5248512
65	0x3e363eee	0.17797443
66	0x3ddf4377	0.1090154
67	0x3e2b7c02	0.16746524
68	0x3f0955d3	0.5364658
69	0x3ef8a9a2	0.4856692
70	0x3ec5ad9b	0.38609013
71	0x3e3c4fb5	0.18389781
72	0x3f31642e	0.6929349
73	0x3ed3e0ae	0.41382354
74	0x3f3e75e9	0.74398667
75	0x3eb474b1	0.35245278
76	0x3e44b6e8	0.19210398
77	0x3e82d319	0.2555168
78	0x3eb0ae93	0.3450819
79	0x3e7cbb81	0.24680902
80	0x3ea6881e	0.32525724
81	0x3e77e2dc	0.24207634
82	0x3d668291	0.05627686
83	0x3ec7d896	0.3903243
84	0x3e6c12c7	0.23054038
85	0x3efc289e	0.49249738
86	0x3f2d6aa8	0.6774087
87	0x3eafe28d	0.34352532
88	0x3f1173f7	0.56817573
89	0x3e9e8c86	0.30966586
90	0x3ecacb82	0.3960839
91	0x3f0ce377	0.55034584
92	0x3e2a298a	0.16617408
93	0x3e3f5da0	0.18688059
94	0x3f0ef94f	0.55849165
95	0x3eb9a404	0.36257946
96	0x3ec95aac	0.3932699
97	0x3df2caf5	0.11855117
98	0x3eeec8e1	0.46637633
99	0x3dfbc61a	0.12293644
100	0x3ea7c106	0.32764453
101	0x3e813d81	0.25242236
102	0x3eb03331	0.34414056
103	0x3f215a18	0.630281
104	0x3eb2038e	0.34768337
105	0x3e02ffcc	0.12792891
106	0x3e47b96a	0.19504324
107	0x3f37dc95	0.71820956
108	0x3ed10870	0.4082675
109	0x3d4d6465	0.05014457
110	0x3e2551ba	0.16144457
111	0x3e8a5275	0.27016035
112	0x3f320b3b	0.69548386
113	0x3e20d00c	0.15704364
114	0x3e9a4f72	0.30138737
115	0x3de44471	0.11145867
116	0x3e983d2c	0.2973417
117	0x3ee728ca	0.45148307
118	0x3e073f68	0.13207781
119	0x3e0585b0	0.13039279
120	0x3e831970	0.25605345
121	0x3e9a2679	0.30107477
122	0x3e320102	0.17383197
123	0x3e9119de	0.28340048
124	0x3e1caab6	0.15299496
125	0x3e618fc4	0.22027498
126	0x3f059e24	0.5219443
127	0x3f0e2da6	0.55538404

network.2.running_var f4 [128]
0	0x3e62d1fa	0.22150412
1	0x3f0119de	0.50430095
2	0x3f7488de	0.9552134
3	0x3d90e38c	0.07074651
4	0x3e146bbd	0.14494224
5	0x3d9eea43	0.077595256
6	0x3dcfb7fc	0.10142514
7	0x3dc3ab0c	0.09554109
8	0x3e13bf16	0.14428362
9	0x3ea35f41	0.3190861
10	0x3dae8f0d	0.085233785
11	0x3eb2bb38	0.34908462
12	0x3e61e370	0.22059417
13	0x3e1ce54e	0.15321848
14	0x3cca7a45	0.024716506
15	0x3e709415	0.23493989
16	0x3f2036ea	0.6258379
17	0x3f0e3cfa	0.5556179
18	0x3e6f9f09	0.23400511
19	0x3e3da913	0.18521528
20	0x3d08931d	0.033343423
21	0x3e94070d	0.2891163
22	0x3d5fea7c	0.05466698
23	0x3d21b5a7	0.039479878
24	0x3eaa9e72	0.3332401
25	0x3e6d9b00	0.23203659
26	0x3e11b8c7	0.14230643
27	0x3edfda46	0.43721217
28	0x3ea5bbcb	0.32369837
29	0x3ebdbeff	0.3705978
30	0x3e9b5d5b	0.30344662
31	0x3e3944d1	0.18092658
32	0x3f4968af	0.7867536
33	0x3f261336	0.64873064
34	0x3e256feb	0.16155975
35	0x3f20a21a	0.6274735
36	0x3de50538	0.11182636
37	0x3dc7096d	0.09718595
38	0x3edc00ab	0.4296926
39	0x3f1e0ae1	0.6173535
40	0x3e25d2de	0.1619372
41	0x3f7ba35c	0.9829614
42	0x3e22e84c	0.15908927
43	0x3eb4ab32	0.35286862
44	0x3f1ac937	0.6046328
45	0x3e9cf0ff	0.30652615
46	0x3dcb5dcf	0.09930002
47	0x3da2f74d	0.07957325
48	0x3dfb0a41	0.12257815
49	0x3dbc4ce0	0.0919435
50	0x3e108430	0.14112926
51	0x3e85fa91	0.2616773
52	0x3dacca72	0.08437051
53	0x3e4c462a	0.1994864
54	0x3c80476c	0.015659057
55	0x3e8a392f	0.26996753
56	0x3ee60f9e	0.4493379
57	0x3dc90f1d	0.09817336
58	0x3e13a69c	0.14419025
59	0x3d7d2b39	0.0618088
60	0x3e9b7760	0.30364513
61	0x3f00fa49	0.50381905
62	0x3d743b7a	0.059627034
63	0x3f2acd23	0.66719264
64	0x3ecd8c81	0.40146258
65	0x3e1445cf	0.14479755
66	0x3d876cb0	0.06612527
67	0x3dcb23b7	0.099189214
68	0x3e9d0385	0.30666748
69	0x3ee8fc95	0.45505205
70	0x3f0cc75a	0.54991686
71	0x3df3635a	0.11884184
72	0x3f595109	0.84889275
73	0x3ee6adae	0.45054382
74	0x3f739ca7	0.9516091
75	0x3eb08afe	0.34481043
76	0x3e1353da	0.14387456
77	0x3e7139eb	0.2355725
78	0x3ee37736	0.44426888
79	0x3e434bee	0.19071934
80	0x3eb3fc7b	0.35153565
81	0x3e5df61f	0.21675919
82	0x3d00a4dc	0.031407222
83	0x3e859744	0.2609197
84	0x3e54d57c	0.20784563
85	0x3f3a35c0	0.72738266
86	0x3f7cbd48	0.9872632
87	0x3e6d363e	0.23165223
88	0x3f01e6b2	0.5074264
89	0x3ed00d13	0.40634975
90	0x3e54a7ab	0.20767085
91	0x3ee2d578	0.4430349
92	0x3dd85942	0.105638996
93	0x3e172fa8	0.14764273
94	0x3f0a428c	0.5400779
95	0x3e979c69	0.2961152
96	0x3edeace7	0.4349129
97	0x3d96f51f	0.07370972
98	0x3eac3554	0.33634436
99	0x3da9b698	0.0828678
100	0x3eed602b	0.46362433
101	0x3e3f54d0	0.18684697
102	0x3eaceb29	0.33773163
103	0x3f0a9c43	0.54144686
104	0x3e97171c	0.2950982
105	0x3d98906f	0.074494235
106	0x3e193296	0.14960703
107	0x3f28fc0a	0.6600958
108	0x3eba7af2	0.36421925
109	0x3cef6c09	0.02922632
110	0x3de5f400	0.1122818
111	0x3eae08ba	0.33991033
112	0x3f311a3d	0.6918066
113	0x3dea15a4	0.11429909
114	0x3ea879f7	0.32905552
115	0x3d82dcad	0.06389747
116	0x3ec4dcae	0.38449615
117	0x3ef08f24	0.46984208
118	0x3d876c66	0.06612472
119	0x3da1a799	0.07893295
120	0x3e3ed25b	0.18634932
121	0x3e76250e	0.24037573
122	0x3df5f0f9	0.120088525
123	0x3ea42d8a	0.32065994
124	0x3dc70e92	0.09719576
125	0x3e344e06	0.17607889
126	0x3f3a9c64	0.72894883
127	0x3f0ace5a	0.5422112

network.4.weight f4 [64, 128]
0	0xbdef9b60	-0.11699557
1	0xbc6cd7fd	-0.0144557925
2	0x3e48a702	0.19594958
3	0xbe5e2210	-0.21692681
4	0xbebaf235	-0.36512914
5	0xbec3baf4	-0.3822857
6	0xbdaf7475	-0.08567134
7	0xbdb97394	-0.09055248
8	0xbd773a6c	-0.06035845
9	0xbe2cace9	-0.16862835
10	0xbf15d867	-0.5853333
11	0xbe82312f	-0.2542815
12	0xbf0a3f7c	-0.5400312
13	0xbe7bcc8e	-0.2458975
14	0xbe0e778a	-0.13912788
15	0xbd866320	-0.06561875
16	0xbe0ea87c	-0.13931459
17	0x3e11e4ab	0.14247386
18	0xbdf45909	-0.119310446
19	0xbef011bd	-0.46888533
20	0xbf2019c5	-0.6253932
21	0x3c88373a	0.016627897
22	0xbe63bf82	-0.22241023
23	0xbe1fb855	-0.15597661
24	0xbbd463a6	-0.0064816056
25	0xbe9ae9d6	-0.30256528
26	0xbe804073	-0.2504917
27	0xbdd37794	-0.10325542
28	0xbd806ed1	-0.062711366
29	0x3e40d542	0.18831351
30	0xbe4e0d67	-0.201223
31	0x3dd77917	0.10521143
32	0xbc02e573	-0.007989275
33	0x3ca24b06	0.019811165
34	0xbe818418	-0.25296092
35	0xbddd0423	-0.10791805
36	0xbeab6c6f	-0.33481166
37	0x3da22654	0.07917467
38	0xbcf17134	-0.029472925
39	0x3daea833	0.08528175
40	0xbc6b5a11	-0.014364735
41	0xbdc6a089	-0.096985884
42	0xbaa86390	-0.0012847055
43	0x3f049122	0.51783955
44	0xbe42c638	-0.19020927
45	0x3eb41f47	0.35180113
46	0x3e0d39f6	0.13791642
47	0xbe7a7fbc	-0.2446279
48	0xbd1aa0a5	-0.03775086
49	0xbebef28c	-0.37294424
50	0xbef287a7	-0.4736912
51	0xbe3da702	-0.1852074
52	0xbde48814	-0.11158767
53	0x3ce86db4	0.028372623
54	0xbd7f5262	-0.062334426
55	0xbd16aaad	-0.036783863
56	0xbb05647b	-0.002035408
57	0x3ba69654	0.0050838385
58	0xbb908481	-0.004410327
59	0xbecdf0d8	-0.40222812
60	0xbda1fcc6	-0.07909541
61	0x3b4a5d5b	0.0030878398
62	0x3d8a6643	0.06757786
63	0xbc35f455	-0.011105617
64	0xbc617a52	-0.013762074
65	0xbea1c030	-0.3159194
66	0xbe3db021	-0.18524219
67	0x3ddfdc25	0.10930661
68	0xbe324f4c	-0.17413062
69	0xbeff2fc2	-0.49841124
70	0xbe76a7f2	-0.24087504
71	0x3d85e279	0.06537337
72	0x3d310166	0.043214224
73	0xbec25b81	-0.37960437
74	0xbdeee340	-0.11664438
75	0xbc964b73	-0.018346524
76	0xbe42ea64	-0.19034725
77	0xbee51593	-0.44743022
78	0x3bea8b12	0.0071576918
79	0x3da08d93	0.07839503
80	0xbd138ecf	-0.036024865
81	0xbe45f527	-0.193318
82	0x3cce084c	0.02515044
83	0x3dd93665	0.10606078
84	0xbea212db	-0.3165501
85	0xbca6f08d	-0.020378375
86	0x3e0282e4	0.12745243
87	0x3ca956a8	0.020671204
88	0xbcdf9bc1	-0.027295949
89	0xbec183cf	-0.37795874
90	0xbc1174e2	-0.008877965
91	0x3dafed5c	0.085901946
92	0xbc5e5b98	-0.013571642
93	0x3e20bc14	0.15696746
94	0x3dae12a8	0.08499652
95	0xbea15a60	-0.31514263
96	0x3d8a0bcf	0.067405336
97	0x3b6d09ba	0.0036169128
98	0x3e513e8d	0.20434017
99	0xbeb70566	-0.35746306
100	0xbebd0cf8	-0.36923957
101	0x3e22b392	0.15888813
102	0xbeb4a15e	-0.35279363
103	0xbd812781	-0.06306363
104	0x3c0784d7	0.008271418
105	0x3e575ea4	0.21032196
106	0x3e3abdad	0.18236418
107	0x3dec1141	0.115267284
108	0xbd8de726	-0.06928854
109	0xbe1e2507	-0.15443812
110	0xbea667eb	-0.32501158
111	0x3e0c1bd3	0.13682489
112	0xbe42a78a	-0.19009224
113	0xbc7b779e	-0.015348343
114	0xbd8438b5	-0.064561285
115	0xbdfc0f55	-0.12307612
116	0xbd5e2f2a	-0.054244198
117	0xbd8c524f	-0.068516366
118	0xbe250e24	-0.16118675
119	0x3dce8d33	0.10085525
120	0xbcdd43fb	-0.027009955
121	0xbe1f5b8f	-0.1556227
122	0xbf25a7f5	-0.6470941
123	0xbedda8b3	-0.4329277
124	0x3e216fbf	0.15765284
125	0xbf36e745	-0.7144664
126	0xbcdab7fd	-0.02669906
127	0xbcdb1333	-0.026742553
128	0xbf35bf13	-0.7099468
129	0x3d6c0e34	0.057630733
130	0x3c9747db	0.01846688
131	0xbe06c85f	-0.13162373
132	0xbf77136f	-0.9651403
133	0xbf2bc01d	-0.67090017
134	0x3dbee5c7	0.0932117
135	0xbe953fc5	-0.29150215
136	0xbf27de63	-0.6557371
137	0xbd19de03	-0.037565242
138	0x3d378fb9	0.0448148
139	0xbdceb75c	-0.10093567
140	0xbeb94b91	-0.36190465
141	0xbe16ebe5	-0.14738424
142	0xbee3bbdc	-0.44479263
143	0xbd20d45f	-0.039265033
144	0xbdb01b41	-0.08598948
145	0xbcaa05a3	-0.02075464
146	0xbe19d7bb	-0.15023701
147	0xbf19cd1c	-0.600786
148	0xbecbe9ab	-0.39826712
149	0xbc87538d	-0.016519332
150	0xbb3d91f0	-0.0028926097
151	0x3e78204d	0.24231072
152	0xbe60e393	-0.21961813
153	0xbe412675	-0.18862326
154	0xbed6fae7	-0.41988298
155	0x3db6910c	0.08914384
156	0xbcc7fe46	-0.02441324
157	0xbdb06d35	-0.086145796
158	0x3dab8ef1	0.08376873
159	0xbe6e6888	-0.23282063
160	0x3e14a15b	0.14514677
161	0xbdaf33a6	-0.08554773
162	0xbf182a4f	-0.5943956
163	0x3c231b29	0.009955206
164	0x3d51e0d0	0.05123979
165	0x3e0fd7d9	0.14047183
166	0xbd7e6f03	-0.062117588
167	0xbcb201c3	-0.021729356
168	0x3d86379f	0.06553578
169	0xbe191934	-0.1495102
170	0xbf226b79	-0.6344524
171	0xbe67725e	-0.22602221
172	0x3da96230	0.08270681
173	0xbe9c5f1a	-0.30541307
174	0xbdce3af2	-0.10069837
175	0xbefc15f3	-0.49235496
176	0x3c9fa281	0.019486668
177	0xbeb807f7	-0.35943577
178	0xbf190eb6	-0.5978807
179	0xbe997cc0	-0.2997799
180	0xbe983a7b	-0.29732117
181	0x3db37466	0.087624356
182	0x3d84da69	0.06486971
183	0x3e0f14dc	0.13972801
184	0x3e1807d9	0.14846744
185	0x3e0fa160	0.14026403
186	0xbd510112	-0.05102641
187	0xbd1c2d4f	-0.038129147
188	0x3d6ecd02	0.05830098
189	0xbd86c1ff	-0.065799706
190	0x3a229ea4	0.0006203449
191	0xbb869eaa	-0.0041082697
192	0x3e1c10bc	0.15240759
193	0xbf1fef68	-0.6247468
194	0x3e1aa846	0.15103254
195	0x3e284e42	0.16436103
196	0xbd4f9284	-0.050676838
197	0xbe25c73f	-0.16189288
198	0xbdad7483	-0.084694885
199	0xbeef68ad	-0.4675955
200	0x3cb3c60b	0.02194502
201	0xbd237783	-0.039908897
202	0x3bb73280	0.005590737
203	0x3e3bd2ad	0.18342085
204	0xbe8084e1	-0.2510138
205	0xbf324165	-0.69631034
206	0xbe25c64a	-0.16188923
207	0x3e0ee8b5	0.13955958
208	0x3e535da2	0.20641187
209	0x3d6c92c9	0.057757173
210	0x3da71638	0.08158535
211	0xbd3f9dcc	-0.046781346
212	0xbe6c27fa	-0.23062125
213	0xbed19e76	-0.4094121
214	0xbd540168	-0.051759154
215	0x3c1dd2f0	0.009632811
216	0xbcc27caa	-0.023741085
217	0xbea3e8d4	-0.3201357
218	0x3e18e902	0.14932635
219	0xbd315f18	-0.04330358
220	0xbd0ffcff	-0.035153385
221	0x3e04cc73	0.12968616
222	0x3d4cb593	0.04997785
223	0xbbc3cda9	-0.0059754443
224	0x3c622a6c	0.0138040595
225	0xbd3b6671	-0.045751993
226	0x3cbe64d2	0.023241434
227	0xbd9859c9	-0.07439
228	0xbe2138db	-0.15744345
229	0xbd9c67ab	-0.076369606
230	0xbd431aaf	-0.04763287
231	0xbde5faec	-0.112295
232	0xbf1e0d14	-0.61738706
233	0x3ea751fb	0.32679734
234	0x3d87010e	0.06591998
235	0x3b63a10a	0.0034733438
236	0x3e075aeb	0.13218276
237	0x3d8ee61d	0.069774844
238	0xbe4d9071	-0.20074631
239	0xbd7f2369	-0.06228963
240	0xbc89b49f	-0.01680976
241	0xbd11539d	-0.03548013
242	0x3eddfe91	0.4335828
243	0xbf0524e9	-0.52009445
244	0x3ec323ef	0.38113353
245	0x3c0d6380	0.00862968
246	0xbebf9b98	-0.37423396
247	0x3e30f766	0.17281875
248	0xbe21088c	-0.15725917
249	0x3ca750b3	0.020424223
250	0xbe88f54e	-0.26749653
251	0xbd2251d4	-0.03962882
252	0x3db8ed6e	0.09029661
253	0xbed20171	-0.41016725
254	0x3d8c832b	0.06860956
255	0x3c585565	0.013203953

network.4.bias f4 [64]
0	0xbef4c9b3	-0.47810134
1	0xbd6c7546	-0.05772903
2	0xbe3373e1	-0.17524673
3	0xbf4f4801	-0.80969244
4	0xbf13ae78	-0.57688093
5	0xbe8024b0	-0.2502799
6	0xbec6ec60	-0.38852215
7	0xbe5dfa11	-0.21677424
8	0xbf1eef18	-0.6208358
9	0xbee0132c	-0.43764627
10	0xbef7354a	-0.48282844
11	0xbf19c2d8	-0.6006293
12	0xbeb58f97	-0.35461113
13	0xbe481760	-0.19540167
14	0xbe9f5d5b	-0.31125912
15	0xbec9979b	-0.39373478
16	0xbdb77b33	-0.08959045
17	0xbe8982fe	-0.26857752
18	0x3d79e559	0.06100974
19	0xbf0d3333	-0.5515625
20	0xbf42cb63	-0.76091594
21	0xbcc5feae	-0.024169292
22	0xbeb6e9c2	-0.35725218
23	0xbf30c908	-0.6905675
24	0xbef6ce7f	-0.4820442
25	0xbe7f2f5c	-0.2492041
26	0xbec63e8c	-0.38719594
27	0xbf23d944	-0.64003396
28	0xbebc9a88	-0.36836648
29	0xbe8e3586	-0.2777521
30	0xbdc2f693	-0.095196865
31	0xbe0e45e6	-0.13893852
32	0xbe9762cf	-0.29567572
33	0xbe9da1fc	-0.30787647
34	0xbeaca66d	-0.33720723
35	0xbf0e9bcb	-0.5570647
36	0xbef206d6	-0.4727084
37	0x3e9bdfae	0.30444092
38	0xbef6d73b	-0.48211083
39	0xbed30371	-0.41213563
40	0xbe8b01e4	-0.2714988
41	0x3c6704e8	0.014100291
42	0xbe5abbd8	-0.21360719
43	0xbd5b4230	-0.05352992
44	0xbead7f4d	-0.33886185
45	0xbe242410	-0.16029382
46	0xbdf42886	-0.11921792
47	0xbefe52e8	-0.49672627
48	0xbeb1fc1b	-0.34762654
49	0xbed0b275	-0.40761152
50	0xbdcb66b2	-0.09931697
51	0xbf039751	-0.51402766
52	0xbee27755	-0.44231668
53	0xbeea1e81	-0.45726398
54	0xbe675e7c	-0.22594637
55	0xbe32a45d	-0.17445512
56	0xbf04f79d	-0.5194033
57	0xbf04d200	-0.51882935
58	0xbf502326	-0.8130363
59	0xbe3fb33e	-0.18720719
60	0xbeebc89f	-0.460515
61	0xbee9f3a6	-0.45693702
62	0xbeb2c07c	-0.3491248
63	0xbeb28bf7	-0.3487241

network.6.weight f4 [64]
0	0x3f23e753	0.6402485
1	0x3f04647c	0.51715827
2	0x3f69bda8	0.9130502
3	0x3eb913a1	0.36147788
4	0x3f3431b5	0.70388347
5	0x3f029b2c	0.51018023
6	0x3f0265b0	0.5093641
7	0x3f5ee750	0.87071705
8	0x3f847c0c	1.0350356
9	0x3f47ea20	0.7809162
10	0x3f2157a5	0.6302436
11	0x3f1ce875	0.612922
12	0x3f38b662	0.72153294
13	0x3f219de5	0.6313155
14	0x3ef1a7f1	0.47198442
15	0x3f19dd2f	0.60103124
16	0x3f56aae5	0.83854514
17	0x3f10bbd0	0.5653658
18	0x3f2619ef	0.6488332
19	0x3f27b1e2	0.655058
20	0x3ea05b01	0.3131943
21	0x3f2d6c6e	0.67743576
22	0x3f0efde4	0.55856156
23	0x3f41a72f	0.75645727
24	0x3f116ff8	0.56811476
25	0x3f40277b	0.7506024
26	0x3f2b8525	0.6700004
27	0x3f38bd54	0.7216389
28	0x3f82b2c7	1.0210809
29	0x3f6aadbc	0.9167135
30	0x3f89fa92	1.0779593
31	0x3f5f0486	0.8711628
32	0x3f5d06fb	0.86338776
33	0x3ee62680	0.44951248
34	0x3f7ca646	0.98691213
35	0x3f573479	0.8406444
36	0x3f5126d6	0.81699884
37	0x3e990225	0.2988445
38	0x3f690ba8	0.9103341
39	0x3f2dbe94	0.67868924
40	0x3f751944	0.9574168
41	0x3f1d5eb2	0.6147262
42	0x3f496006	0.78662145
43	0x3f2ef73a	0.6834599
44	0x3f60055e	0.8750819
45	0x3f3b2726	0.7310661
46	0x3f86b1e6	1.052304
47	0x3eac60af	0.33667514
48	0x3f2a60a4	0.6655371
49	0x3f4b3bd5	0.7938817
50	0x3f5301d5	0.8242467
51	0x3e8d6a3e	0.2762012
52	0x3f77a863	0.9674131
53	0x3f81e82f	1.0148982
54	0x3f594b11	0.8488017
55	0x3f2e319a	0.68044436
56	0x3ef445fe	0.4770965
57	0x3f08690b	0.5328528
58	0x3f159020	0.5842304
59	0x3f5585c1	0.8340722
60	0x3f4f0a22	0.80874836
61	0x3f69ca22	0.91324055
62	0x3f67ed63	0.905966
63	0x3f35521e	0.70828426

network.6.bias f4 [64]
0	0xbdd92133	-0.106020354
1	0xbd20b85b	-0.039238315
2	0x3ef5ff98	0.48046565
3	0x3ebb2ead	0.36559048
4	0x3bd8cf60	0.006616518
5	0x3c26eeaf	0.010188743
6	0x3d139184	0.036027446
7	0x3eb87c4d	0.36032334
8	0x3ec05815	0.375672
9	0x3f1744c3	0.590893
10	0x3c026b12	0.007960098
11	0x3c3520fe	0.011055229
12	0x3f13c862	0.57727635
13	0xbcf039ee	-0.029324498
14	0xbdf6da47	-0.12053352
15	0x3bfc1f0a	0.00769413
16	0x3f08690d	0.53285295
17	0x3bed3e39	0.0072400835
18	0xbe12629c	-0.14295429
19	0x3e0bdc4d	0.13658257
20	0xbc5279fd	-0.012846467
21	0xbbab3462	-0.0052247504
22	0x3c7028d0	0.014658168
23	0xbc807e32	-0.015685175
24	0x3c9fb34d	0.019494677
25	0x3ef84174	0.48487437
26	0x3d181d78	0.03713748
27	0x3e49fd22	0.19725469
28	0x3ee3fdf0	0.44529676
29	0x3e9c51f7	0.30531284
30	0x3eab4b0e	0.334557
31	0x3f0c4187	0.54787487
32	0x3eb6e10c	0.35718572
33	0xbd459143	-0.048234235
34	0x3e952725	0.29131427
35	0x3e40c6fa	0.18825904
36	0x3c2ff282	0.010738971
37	0xbe1f279d	-0.15542455
38	0x3edf7701	0.4364548
39	0x3e698faa	0.2280871
40	0x3ea71bbc	0.32638347
41	0x3d005d13	0.031338762
42	0x3f05ba95	0.52237827
43	0x3f1df04f	0.61694807
44	0x3f1d9cda	0.6156746
45	0x3f1c03dd	0.60943395
46	0x3ee49e63	0.4465209
47	0xbda707e5	-0.08155803
48	0x3c85b65e	0.016322311
49	0x3ed36677	0.41289112
50	0x3ed7d2e1	0.42153075
51	0x3cd3ab7b	0.025838604
52	0x3e979f2f	0.29613635
53	0x3eb91793	0.36150798
54	0x3efe1685	0.49626556
55	0x3f078d1c	0.5294969
56	0xbb60122a	-0.0034190514
57	0x3c055786	0.008138543
58	0xbdf77ebf	-0.12084722
59	0x3f0131ff	0.50466913
60	0x3f1605b1	0.58602434
61	0x3f026e32	0.50949395
62	0x3e7aee4d	0.24504967
63	0x3f074ef4	0.5285485

network.6.running_mean f4 [64]
0	0x3c76419e	0.015030293
1	0x3d8ce06a	0.06878741
2	0x3fbec3b3	1.4903473
3	0x3c215508	0.009846933
4	0x3a4bed81	0.0007779226
5	0x398a5dab	0.000263912
6	0x3d5a57de	0.053306453
7	0x3ebdd032	0.37072903
8	0x3e8ed2d8	0.27895236
9	0x404d7937	3.2105234
10	0x3a5ffffe	0.0008544921
11	0x3a191a0f	0.000584037
12	0x401ac67c	2.4183645
13	0x3ccc6331	0.024949642
14	0x3e053a0e	0.13010427
15	0x3a82d4e1	0.0009981656
16	0x3f76c292	0.9639064
17	0x3cbae0a2	0.022812191
18	0x3d5c7d65	0.053830523
19	0x3d3cef3a	0.04612658
20	0x3a85338f	0.001016246
21	0x3d22fc0e	0.03979116
22	0x3a7ba603	0.0009599628
23	0x36b67226	5.4373113e-06
24	0x3b34ad55	0.0027569134
25	0x3f997668	1.198926
26	0x3c0e2172	0.008674966
27	0x3e0e34fe	0.13887402
28	0x3fc3f601	1.530945
29	0x3fc7703e	1.5581129
30	0x3ec5ea16	0.38655156
31	0x4026071f	2.5941846
32	0x3f16ce58	0.58908606
33	0x3ca6d058	0.020363018
34	0x3e846210	0.25856066
35	0x3f140b6d	0.57829934
36	0x3a4d5ff2	0.00078344264
37	0x3dbcbc29	0.09215576
38	0x3f74bb82	0.95598614
39	0x3df91da9	0.1216386
40	0x3ef70908	0.48249078
41	0x3bfab9df	0.007651552
42	0x3f9017ae	1.1257226
43	0x400910bb	2.1416461
44	0x402fc57d	2.7464287
45	0x403567d9	2.8344634
46	0x3f14e6c6	0.5816463
47	0x3d995fe2	0.07488991
48	0x3c771df1	0.015082822
49	0x3f83939e	1.0279424
50	0x3faca66a	1.3488286
51	0x388934d4	6.542509e-05
52	0x3e480572	0.19533327
53	0x3f0aba0a	0.54190123
54	0x3f8d5bff	1.10437
55	0x400deef4	2.2177095
56	0x39339376	0.00017125704
57	0x3a080c35	0.0005189807
58	0x00000004	6e-45
59	0x3f9ad2c0	1.2095566
60	0x4031d64c	2.7787046
61	0x3fa75010	1.3071308
62	0x3e352480	0.17689705
63	0x4052353d	3.2844994

network.6.running_var f4 [64]
0	0x3c6df288	0.014523156
1	0x3dac9a0a	0.08427818
2	0x40da9e28	6.831806
3	0x3c9fb9eb	0.019497832
4	0x3a187e20	0.0005817134
5	0x38de7058	0.000106067106
6	0x3d633d7b	0.055478554
7	0x3f311831	0.6917754
8	0x3f079d6d	0.5297459
9	0x4179f980	15.623413
10	0x3a5bbf2b	0.0008382673
11	0x39b87fa4	0.00035190315
12	0x410431c2	8.262148
13	0x3cafba74	0.021451212
14	0x3e79f0ce	0.24408266
15	0x3a8d4e11	0.0010780712
16	0x3ffa345b	1.9547228
17	0x3cbe3179	0.02321695
18	0x3d7e59eb	0.06209747
19	0x3d2cb6b8	0.04216644
20	0x3a4cd543	0.0007813761
21	0x3d298d8a	0.041394748
22	0x3a31ea62	0.000678694
23	0x37030d11	7.811251e-06
24	0x3b32ec1d	0.002730138
25	0x4049b8fc	3.1519156
26	0x3baa8a39	0.0052044657
27	0x3e82d19d	0.25550547
28	0x40ed0354	7.4066563
29	0x4107a149	8.476876
30	0x3fb2585a	1.3933213
31	0x412b883b	10.720759
32	0x3fec403d	1.8457104
33	0x3c9cb5ab	0.019129595
34	0x3f246405	0.6421512
35	0x3fdc8684	1.7228551
36	0x3a109afd	0.0005516259
37	0x3e10ebb2	0.1415241
38	0x406ec884	3.7309885
39	0x3e1d2b15	0.15348466
40	0x3fc0c125	1.5058943
41	0x3c0cc79e	0.008592514
42	0x40211df8	2.5174541
43	0x40a25100	5.0723877
44	0x416f2f7f	14.949096
45	0x41343c3f	11.2647085
46	0x3fdd7619	1.7301666
47	0x3ddd844c	0.10816249
48	0x3c7f39f0	0.015577778
49	0x405e0350	3.4689522
50	0x40ba33fb	5.8188453
51	0x37970c25	1.8006258e-05
52	0x3ead0971	0.33796266
53	0x3ff6434d	1.9239289
54	0x404938bf	3.1440885
55	0x40ee069a	7.438306
56	0x38c05fdf	9.173131e-05
57	0x39488e14	0.00019126415
58	0x00000004	6e-45
59	0x406ad748	3.6693897
60	0x414e6f03	12.902102
61	0x4094d4b0	4.650963
62	0x3e87ce37	0.26524517
63	0x416999d7	14.600059

network.8.weight f4 [32, 64]
0	0xbd448317	-0.04797658
1	0x3d5ca0d0	0.0538643
2	0x3d82d9e4	0.063892156
3	0x3c5fe8a5	0.013666307
4	0xbe23d8f3	-0.16000728
5	0xbdb21466	-0.08695297
6	0x3ce11d81	0.027479889
7	0x3d019bfe	0.031642906
8	0x3d6da031	0.0580141
9	0x3c535dbd	0.012900767
10	0xbe548f17	-0.2075771
11	0xbd34f190	-0.044175684
12	0x3cc6fc05	0.024290094
13	0xbd038b53	-0.03211529
14	0xbc914ff7	-0.017738326
15	0xbdf706f8	-0.12061876
16	0xbd203010	-0.039108336
17	0xbd967d77	-0.07348149
18	0xbd2fb749	-0.042899404
19	0x3e2d8766	0.16946182
20	0xbd1fe520	-0.03903687
21	0xbd6f1449	-0.058368955
22	0xbe0b8577	-0.13625132
23	0xbd96f50e	-0.07370959
24	0xbc1f8faf	-0.009738847
25	0x3d93b4bd	0.072122075
26	0x3d3ea854	0.04654725
27	0xbbb28b2c	-0.0054487195
28	0x3c13a7b9	0.009012156
29	0xbc1fe834	-0.009759951
30	0x3d877e69	0.06615908
31	0x3c63429b	0.01387086
32	0x3d875309	0.066076346
33	0xbda2d523	-0.07950809
34	0x3c7d8c93	0.01547541
35	0x3bb52b39	0.005528834
36	0xbe1d23df	-0.15345715
37	0xbc9945fc	-0.018710129
38	0x3df2aa65	0.118489064
39	0x3d665225	0.056230683
40	0x3de1cffd	0.11025999
41	0xbacf1a78	-0.0015800735
42	0x3cb2ac51	0.021810682
43	0xbc333d2c	-0.0109398775
44	0xbdc8d3f6	-0.09806053
45	0xbdbc5df4	-0.09197608
46	0x3c5b0ef8	0.013370268
47	0xbdb48f47	-0.088163905
48	0xbde14c90	-0.11000931
49	0x3c9d08eb	0.019169291
50	0xbcc62703	-0.024188524
51	0xbd80ec42	-0.062950626
52	0x3dab1dfc	0.083553284
53	0x3c6c4859	0.014421546
54	0x3cad7621	0.021174492
55	0x3bbe998d	0.0058166445
56	0xbe0f4e90	-0.13994813
57	0xbe14b3f3	-0.1452177
58	0xbd3788c0	-0.04480815
59	0x3cb6963e	0.022288438
60	0x3bfd58cb	0.007731532
61	0x3c2e0080	0.010620236
62	0x3ccd0df0	0.02503106
63	0x3ab82c1f	0.0014051235
64	0x3c845294	0.016152658
65	0x3d7ccd12	0.061719008
66	0xbe5d5e55	-0.21618016
67	0xbda46cde	-0.08028577
68	0xbd2edfa8	-0.042693764
69	0x3cbb3d92	0.022856507
70	0x3df2f145	0.11862425
71	0xbd8adf1e	-0.067808375
72	0xbeca9903	-0.39569864
73	0xbf256c8e	-0.64618766
74	0x3c0d1e2a	0.008613149
75	0xbcb104d8	-0.021608755
76	0xbf66e31a	-0.9019028
77	0x3d545e8a	0.051847972
78	0x3e32ad43	0.17448907
79	0xbd1f51ee	-0.038896494
80	0xbf2e28ab	-0.68030804
81	0xba828be0	-0.0009959899
82	0x3d9f607c	0.07782075
83	0x3ca55e07	0.020186437
84	0x3d2acbf7	0.041698422
85	0x3e0f848a	0.14015403
86	0x3c15169b	0.009099628
87	0x3e1457a8	0.14486563
88	0x3d5d3a5b	0.05401073
89	0xbf1394ee	-0.57649124
90	0x3e03589e	0.12826774
91	0xbb629ffd	-0.0034580224
92	0xbf9e9fbf	-1.2392501
93	0xbf61a832	-0.8814727
94	0xbe053a7d	-0.13010593
95	0xbf87906f	-1.0590953
96	0xbf0a532e	-0.5403317
97	0x3caedd9d	0.021345908
98	0xbf06aa2a	-0.526034
99	0xbeb144df	-0.34622857
100	0xbcb72538	-0.022356614
101	0x3db4a6bb	0.08820864
102	0xbf0d8181	-0.5527573
103	0x3de9ad32	0.114099875
104	0x3e907139	0.28211382
105	0xbe088bc2	-0.13334563
106	0xbe3c0bb3	-0.18363838
107	0xbecc7d55	-0.3993937
108	0xbf3d5fa9	-0.7397409
109	0xbf3cb084	-0.7370684
110	0xbf084d8e	-0.5324334
111	0xbafdb030	-0.0019354876
112	0x3d2081cb	0.03918628
113	0xbf199f9b	-0.60009164
114	0xbf26b091	-0.6511317
115	0x3ca5fd3d	0.020262355
116	0xbdf123d0	-0.11774409
117	0xbf04644b	-0.51715535
118	0xbe966751	-0.293757
119	0xbf370919	-0.71498257
120	0x3d6bc40e	0.05756002
121	0x3d3b26f7	0.045691457
122	0xbe2df659	-0.16988505
123	0xbec6e14a	-0.38843757
124	0xbe7a124b	-0.2442104
125	0xbec75696	-0.38933247
126	0xbe55188c	-0.20810145
127	0xbf933379	-1.1500083
128	0x3e062bdc	0.13102669
129	0x3e5808b7	0.21097074
130	0x3dd0b317	0.10190409
131	0xbe1cf61f	-0.15328263
132	0x3dd76b56	0.105185196
133	0xbcee5dc0	-0.029097438
134	0x3e1f463a	0.15554133
135	0xbf3ccc0e	-0.7374886
136	0xbf3ddd66	-0.7416595
137	0xbbc084ed	-0.005875221
138	0x3db2aeb8	0.08724731
139	0x3b99804b	0.004684483
140	0xbce22798	-0.02760677
141	0x3e69c548	0.22829163
142	0xbec3692e	-0.38166183
143	0x3d392dd8	0.045209736
144	0xbf20fa2b	-0.62881726
145	0x3e693f4b	0.2277805
146	0x3ebb8f83	0.36632928
147	0xbebda25d	-0.37037936
148	0x3df95211	0.12173856
149	0x3e6aa85f	0.22915791
150	0x3da368a2	0.079789415
151	0x3e7b6459	0.24549998
152	0x3d6e7d51	0.05822498
153	0xbf46c7b4	-0.7764847
154	0x3e3d4ead	0.18487044
155	0x3d48b038	0.04899618
156	0xbe681c02	-0.22666934
157	0xbf1d3e65	-0.6142333
158	0x3ed26f6f	0.41100642
159	0xbf23a541	-0.6392403
160	0xbf3d48f0	-0.7393942
161	0x3dc22708	0.09480101
162	0xbf2e6ed8	-0.68137884
163	0xbe8629b9	-0.26203707
164	0x3d0631d9	0.032762382
165	0x3dc2e6b8	0.09516662
166	0xbf2eec6a	-0.6832949
167	0xbee6c1d4	-0.45069754
168	0xbdf1be39	-0.1180386
169	0xbc8920d8	-0.016739294
170	0xbe71ab24	-0.23600441
171	0xbec1c23d	-0.37843505
172	0xbee90a12	-0.45515496
173	0xbf70344c	-0.938298
174	0xbf42f4ba	-0.76154673
175	0xbc717c96	-0.014739176
176	0x3e048bcf	0.12943958
177	0xbf448aef	-0.76774496
178	0xbd03af0b	-0.032149356
179	0x3dee61e9	0.11639769
180	0xbea80ca6	-0.3282215
181	0xbeeea50b	-0.46610293
182	0x3d93457f	0.0719099
183	0xbf1b66e5	-0.6070388
184	0x3e0ee10b	0.13953035
185	0x3e58cae4	0.21171147
186	0x3e765a60	0.24057913
187	0xbf164fb5	-0.58715373
188	0xbca816f1	-0.020518752
189	0xbdb843b6	-0.0899729
190	0xbe8af075	-0.2713658
191	0xbf1b69c8	-0.60708284
192	0xbc0dc9d8	-0.00865408
193	0x3c37a163	0.011207911
194	0xbeada266	-0.33912963
195	0xbcf0fd36	-0.029417615
196	0xbd3ed2db	-0.046587806
197	0x3d35b289	0.044359718
198	0x3d612677	0.054968324
199	0xbf0e7873	-0.5565254
200	0xbe64efe2	-0.22357133
201	0xbf4d43c7	-0.80181545
202	0xbcb81513	-0.022470986
203	0xbd17b21f	-0.037035104
204	0xbf4d4e54	-0.80197644
205	0x3d7f4e02	0.062330253
206	0x3d359044	0.044327036
207	0xbbd82827	-0.0065965834
208	0xbe713359	-0.23554744
209	0x3cdca0ce	0.026932146
210	0x3cead52e	0.028666105
211	0xbc8ea97f	-0.017414806
212	0x3d11880e	0.035530142
213	0x3db35321	0.0875609
214	0xbc8e5972	-0.017376635
215	0x3dfa0296	0.122075245
216	0xbd85d5d0	-0.06534922
217	0xbf25f0af	-0.6482038
218	0x3dd0f198	0.1020233
219	0x3cb43311	0.021997007
220	0xbf78bda0	-0.97164345
221	0xbf878374	-1.0586991
222	0xbe61e932	-0.22061613
223	0xbf53ced8	-0.82737494
224	0xbef7e5a1	-0.4841738
225	0x3c5edc58	0.013602339
226	0xbef7e43a	-0.4841631
227	0xbf2db3ae	-0.67852294
228	0xbb047a26	-0.0020214408
229	0x3e798223	0.2436605
230	0xbf16a85c	-0.58850646
231	0x3d3732f6	0.044726335
232	0xbe844b46	-0.2583868
233	0x3d870242	0.065922275
234	0xbeacb561	-0.3373213
235	0xbe657131	-0.2240646
236	0xbf05f744	-0.5233042
237	0xbf079ee4	-0.5297682
238	0xbeebbba2	-0.4604159
239	0x3def004b	0.11669978
240	0xbca4db8b	-0.020124217
241	0xbf2de79b	-0.67931527
242	0xbf2ab54c	-0.6668289
243	0xbda33b13	-0.07970252
244	0xbf076254	-0.5288441
245	0xbeb74c6f	-0.35800502
246	0xbeddc958	-0.43317676
247	0xbf2aeebf	-0.6677055
248	0x3c8c93a2	0.01716024
249	0x3d06fb9c	0.032954797
250	0x3da05d3f	0.07830285
251	0xbeee7f60	-0.46581554
252	0xbf15e30b	-0.58549565
253	0xbed68e04	-0.41905224
254	0xbebc7f8c	-0.3681606
255	0xbf554c38	-0.83319426

network.8.bias f4 [32]
0	0x406fdd94	3.747899
1	0x3efa3755	0.4887034
2	0x3c3a09d9	0.011354887
3	0x3e1b38bc	0.15158361
4	0x3e463ccf	0.19359134
5	0x3eba33dc	0.3636769
6	0x3fb6412b	1.4238638
7	0x3f8cf72a	1.1012928
8	0x3f5a1dbf	0.8520164
9	0x40234dd4	2.5516253
10	0x3edcbe52	0.43113953
11	0x406c64eb	3.6936595
12	0x4002af60	2.041954
13	0xbf063a28	-0.5243249
14	0x3fbb9336	1.46543
15	0xbf353fb0	-0.70800304
16	0x3f10ae49	0.5651594
17	0x404676db	3.1010044
18	0x3f9b374a	1.2126248
19	0x3fa6b14a	1.3022854
20	0xbf341403	-0.70343035
21	0x3e2af1c5	0.1669379
22	0x3f7d02c2	0.98832333
23	0x4001f85b	2.0307834
24	0x3fb5e232	1.4209654
25	0x3ed91b54	0.42403662
26	0x4052378d	3.2846406
27	0x405b10d2	3.4229016
28	0x3f8b6ab0	1.0891933
29	0x3e0cd6da	0.13753834
30	0x4038ea38	2.8892956
31	0x3fac476d	1.3459297

network.10.weight f4 [32]
0	0x40916917	4.5440784
1	0x406de9b4	3.717389
2	0x4096a5b2	4.7077265
3	0x40610bec	3.5163527
4	0x406c91c4	3.6963968
5	0x408f6941	4.4815984
6	0x408a5851	4.323281
7	0x406773fe	3.6164546
8	0x4084aceb	4.146108
9	0x408604b6	4.188075
10	0x406466e9	3.5687811
11	0x4090cc2e	4.5249243
12	0x4084a847	4.1455417
13	0x409c8640	4.891388
14	0x40766b23	3.850289
15	0x40852f3b	4.1620154
16	0x406be69f	3.685951
17	0x408b4ed0	4.3533707
18	0x40808d8b	4.017278
19	0x407ac7cc	3.9184446
20	0x409e43ae	4.9457617
21	0x4069cc62	3.6530995
22	0x406a4626	3.6605315
23	0x408517f2	4.159173
24	0x4089689d	4.29402
25	0x406a699e	3.6626964
26	0x408edcf0	4.46447
27	0x40910c77	4.5327716
28	0x40617164	3.5225458
29	0x408b7d1a	4.359021
30	0x408eb64f	4.4597545
31	0x408acb14	4.33729

network.10.bias f4 [32]
0	0x3d9001a8	0.07031566
1	0x3d46b6fe	0.04851436
2	0x3ef2985c	0.47381866
3	0x3d25bb21	0.040461663
4	0xbe97f46b	-0.29678664
5	0x3ed7dd28	0.42160916
6	0x3efea1b7	0.49732754
7	0xbee21d6e	-0.44163078
8	0xbe024c73	-0.12724476
9	0x3e9cc120	0.30616093
10	0xbeeb4c8b	-0.45956835
11	0x3df4d9b5	0.11955587
12	0x3eb7c1dd	0.35890093
13	0x3f3e2318	0.742723
14	0xbf5622bd	-0.83646756
15	0x3f07b210	0.53006077
16	0xbe09116f	-0.13385557
17	0x3e9b27d8	0.30303836
18	0xbee5b13c	-0.44861782
19	0xbf516a33	-0.8180267
20	0x3f4961cd	0.7866486
21	0x3e147274	0.14496785
22	0xbf2cc06c	-0.6748111
23	0x3f019400	0.50616455
24	0x3f02286d	0.50842935
25	0xbc069d30	-0.008216187
26	0x3d83f13e	0.06442498
27	0x3d739cd1	0.059475724
28	0xbec55c13	-0.3854681
29	0x3efd2fd1	0.49450544
30	0x3db768c4	0.08955529
31	0x3ecb36df	0.396903

network.10.running_mean f4 [32]
0	0x4080ec7c	4.0288677
1	0x3d6d3138	0.057908267
2	0x3de96148	0.11395508
3	0x3d1cb0a6	0.038254403
4	0x3e17ff58	0.148435
5	0x3e2d7796	0.1694015
6	0x3fca350e	1.5797441
7	0x3dfbae60	0.12289119
8	0x3e6ea367	0.2330452
9	0x4042696a	3.037684
10	0x3e2b9888	0.16757405
11	0x407cad2e	3.94807
12	0x4012e14b	2.2950008
13	0x3dd97ea6	0.106198594
14	0x3e98f657	0.29875442
15	0x3bcb86e9	0.006211151
16	0x3e1f5c10	0.15562463
17	0x40508fe9	3.2587836
18	0x3ece1748	0.40252137
19	0x3e8926a7	0.26787302
20	0x3d78d8d5	0.060753662
21	0x3d1d8e5e	0.03846585
22	0x3e4d349b	0.20039599
23	0x40109482	2.2590642
24	0x3fd054c0	1.6275864
25	0x3d50d11d	0.050980676
26	0x405df1ee	3.4678912
27	0x4075dd86	3.8416457
28	0x3e2f6e83	0.17132
29	0x3e09b8c1	0.13449384
30	0x40484a47	3.1295335
31	0x3fc140cf	1.5097903

network.10.running_var f4 [32]
0	0x3e5b7405	0.21430977
1	0x3dac0b33	0.084005736
2	0x3e9dc436	0.3081376
3	0x3d5279ba	0.05138562
4	0x3e83264f	0.25615165
5	0x3ec1e968	0.37873387
6	0x3e0e7838	0.13913047
7	0x3e2afc72	0.16697863
8	0x3f1f0bf1	0.62127596
9	0x3e8cf70a	0.27532226
10	0x3e903cba	0.2817133
11	0x3e5245fe	0.20534512
12	0x3e7af86d	0.2450883
13	0x3e57b32a	0.2106444
14	0x3ed821da	0.42213327
15	0x3c8ba7e8	0.017047837
16	0x3e9f47e4	0.31109536
17	0x3dfa332d	0.12216792
18	0x3f10628e	0.5640038
19	0x3ed26def	0.41099498
20	0x3e041978	0.1290034
21	0x3d4d61f5	0.050142247
22	0x3e90489b	0.28180394
23	0x3e01e6c4	0.12685686
24	0x3e2bf64c	0.16793174
25	0x3d98326a	0.07431491
26	0x3dff81ff	0.12475967
27	0x3e9dd62c	0.30827463
28	0x3e719d94	0.23595268
29	0x3ecd2c49	0.4007285
30	0x3e1055c9	0.14095224
31	0x3e0319ba	0.12802783

network.12.weight f4 [1, 32]
0	0xc0455a31	-3.0836298
1	0x40136545	2.303056
2	0x405bca58	3.434225
3	0x4014b57e	2.3235774
4	0x400fe5b9	2.2483962
5	0x404e83db	3.2267978
6	0xc042ed80	-3.0457458
7	0x4017c978	2.3716717
8	0x402afea1	2.6717913
9	0xc0409601	-3.0091555
10	0x4016a92a	2.354075
11	0xc04d3043	-3.2060707
12	0xc03ed5d2	-2.9818006
13	0x406fddad	3.747905
14	0x4026bd59	2.6053069
15	0x403d464a	2.957415
16	0x401e4fd2	2.4736218
17	0xc048ea08	-3.1392841
18	0x403a750f	2.9133947
19	0x4021675d	2.5219338
20	0x406da980	3.7134705
21	0x400e5a21	2.224251
22	0x401dbbf2	2.4645963
23	0xc040c4e6	-3.0120177
24	0xc046751f	-3.1008985
25	0x401cb4f8	2.4485455
26	0xc0411afe	-3.0172725
27	0xc051df62	-3.2792592
28	0x40133755	2.3002522
29	0x404d4026	3.2070403
30	0xc042ac1d	-3.041755
31	0xc03da79f	-2.9633558
