nn/duration_predictor_notebook.pth (torch, 601442 bytes, 19 tensors)

network.0.weight f4 [128, 1069]
00000000: 92a0 5d3d b409 86bb 21e0 483c fe5e d83a
00000010: 72c9 04bb 3631 01bb 6540 433c f509 aeba
00000020: 83c8 8ebb ae2b 9c3c c518 3c3b 3f86 16bc
00000030: 868a a2bc 052f 8e3d 6df7 6e3b 4ab9 fb3c
00000040: b7fb f83c f5fe 4abc 2590 46bc a0d5 de3a
00000050: c770 31bc 0a25 033c c67f 5ebb 30b4 c03b
00000060: 8f7d 8f3c 8895 a0bc b680 e33b 6668 88bb
00000070: be2e d53b 989a e83c 80c9 913a 1208 aabc
00000080: db65 0c3c 3023 aebc 6495 9fbc e49c 953a
00000090: a019 ae3b 48f0 153c f3d4 ad3c 0856 c6bb
000000a0: 3888 8c3c c2b0 d43c c316 d8bb c3c4 163c
000000b0: a24b 1abb c2a6 bd3c 5623 3cbb 92dd 973c
000000c0: a7d4 a9bb 7014 9f3c 5ddb e53c 8228 83bb
000000d0: db0f 873c cb8b 943b 412b 193d 5edd 183c
000000e0: 0683 b23c ca86 f9bb cc14 62bb 181e 6f3c
000000f0: fdd1 8b3a b059 073c 562c c73b 4cd3 d23c
00000100: 791b 3f3b 7c89 a3bc 8c9c acbc 60f8 e53b
00000110: e23d 6e3c ec39 c13c 77a0 193c 2f93 873d
00000120: 9a45 bc3c 29ad 9b3c 025d 89bc a66d 393b
00000130: cb96 abba ae93 403a 8fc2 083c 2529 f93c
00000140: d2c5 9e3b 4782 5e3b 6408 d4bb b258 71bc
00000150: cbd6 a83c aa95 913c 345f 273c 48fe d7bb
00000160: c49c 8e3b 7083 423d 3b12 aa3b 631c ecba
00000170: 5cf5 533d 4b30 94bc c948 b63d 45b6 c03b
00000180: 0228 87bc 714b e83b 3b74 7e3a 07fe 24bc
00000190: f492 6cb9 0274 6f3c 1f82 e03c 1981 f83c
000001a0: 6988 d6ba f2a2 413d a4d7 c03b 2984 053d
000001b0: 4dd8 9c3c f618 583b 4ef9 053b 04e9 d23c
000001c0: 1050 a63c 6aa7 84bb d99b 2d3c 41b0 333b
000001d0: 784d fcbb deb5 b3bc 8184 b4bb 4b50 8eb9
000001e0: eefc 803d d666 913b 7c75 df3c 982b a33c
000001f0: bcb1 c33d cf43 de3a c281 43bc 3b49 bc3c
00000200: 153c 213a 5c6a a03c 08af 5ebc 48bd 873c
00000210: b0c6 faba 9bb3 b73d 96a8 043d a1d6 a03a
00000220: f3f2 0bbc fc59 8dbb 5706 163c 0566 c0bb
00000230: 7649 5b3c e7f4 cdbc b085 9dbb f20c 533c
00000240: ed5e b33d 7c74 b53b 0409 313c 8cf6 273c
00000250: a3ac 9b3b 28fc 973b f8c7 a33d 09f3 ba3d
00000260: 635f 753b d390 6b3a 1bd7 d13a 20ad 853b
00000270: 1f7f a8bc e014 a23a 1d5b ef3a 2505 043b
00000280: 67a2 9a3c 2229 5139 945e 143d 180c 763c
00000290: b3b0 aa3c 97cb b03c a5e3 183b f90d b13c
000002a0: 1ab8 a9ba 2ade 1c3b 0d8c 5a3c 9720 563b
000002b0: 5a6c 523d 2bc1 08bb f279 7b3c d8d9 2dbb
000002c0: 1927 903b 130d d83b ac6d f5ba bdd6 443b
000002d0: c593 033d baac f83c 9917 8f3b 98f7 073c
000002e0: 5296 003d b6ba e03c 873a 4ebc 0bff e63b
000002f0: c2b9 6c3b eb8c e3bc ea09 c53d b36a 013d
00000300: 48bd 1dbc 2c93 b83c 856a f339 8e08 573b
00000310: 3858 1e3c 0c76 013d e831 b9ba 3885 aaba
00000320: ec96 223c 5d2c c33c 4cd9 463c 6290 6c3b
00000330: d91b 89b9 9d67 cb3c c988 563b 2c19 103d
00000340: 929f b53c 3b9d 7dbc b05e cfba 18da a13d
00000350: ebdf a23c 9c1b f13b 0ca9 cf3c d2a5 ccbc
00000360: 8e42 953c 34cd 4ebc 9eec 573b 0971 c23d
00000370: d20b 8f3c ca5f a23c 8ca4 e73b 242a 8d3c
00000380: 4f74 ad3c 9627 0d3c 2576 073d 475b 8e3d
00000390: 4e2b eb3c 98d9 c9bc 20d3 26bb a073 50bb
000003a0: 9c09 c7ba 70a6 a6ba f68f a13c 1f4a 8dbc
000003b0: eb5a 8a3d eb36 bdbc 5cd1 ab3c d065 d3bc
000003c0: 5642 c03d ab6e 8abc f203 bd3c c57d d33b
000003d0: edc7 6b3b a5ae 0b3c 6a35 d4bc c917 603c
000003e0: 6cfe 0f3c 51f0 143c 26ac 1fbc bb1a c03c
000003f0: 593e be3d 2790 9a3b 8daf 03bc 4b95 833b
0.05410821 -0.004090512 0.012260468 0.0016507802 -0.0020261672 -0.001971317 0.011917208 -0.0013278114
-0.004357399 0.019063797 0.0028701287 -0.00918728 -0.019841444 0.06942562 0.0036463395 0.030728001
0.030393464 -0.012389888 -0.012119328 0.0017000921 -0.010830111 0.008004436 -0.003395067 0.005880855
0.017515926 -0.019602552 0.006942834 -0.004162836 0.0065058162 0.028394029 0.0011122674 -0.020755801
0.008569206 -0.021257013 -0.019480415 0.0011414555 0.0053131133 0.009151526 0.021219706 -0.006052736
0.017154798 0.025963191 -0.0065945103 0.009202185 -0.0023543616 0.023150805 -0.0028707585 0.01853827
-0.005182821 0.019418925 0.028058702 -0.0040026316 0.016487053 0.004533266 0.037394766 0.009330122
0.021790992 -0.007614945 -0.003449726 0.014594577 0.001066744 0.008261129 0.0060782833 0.02573552
0.0029160662 -0.019963019 -0.021070741 0.007018134 0.014541121 0.02358719 0.009376637 0.0661987
0.022982407 0.019003468 -0.016767982 0.0028294115 -0.0013091204 0.0007346225 0.008347168 0.030415127
0.0048453594 0.0033952163 -0.006470727 -0.014730619 0.020610234 0.01777156 0.010215569 -0.006591592
0.004352184 0.04748863 0.0051901615 -0.0018013831 0.051747665 -0.018089434 0.089006014 0.005881103
-0.01649857 0.0070890714 0.0009706651 -0.01007033 -0.00022561458 0.014615061 0.027405797 0.030334996
-0.0016367558 0.047274537 0.0058850814 0.03259674 0.019146109 0.0032973862 0.0020442787 0.025745876
0.020301849 -0.0040482776 0.010596239 0.0027418288 -0.0076996647 -0.021937307 -0.0055089598 -0.00027144174
0.062982425 0.004437308 0.0272777 0.019918248 0.095553845 0.0016957464 -0.011932792 0.022984138
0.00061506155 0.019581966 -0.013591535 0.016569749 -0.00191327 0.08969804 0.03238734 0.0012270996
-0.00854181 -0.0043137055 0.009156785 -0.0058715367 0.013384214 -0.025141193 -0.0048071966 0.012881504
0.0875834 0.0055375677 0.010805372 0.010251652 0.0047508045 0.0046382137 0.079971254 0.091283865
0.0037440888 0.0008986119 0.0016009541 0.004079476 -0.020568429 0.001236584 0.0018261407 0.0020144668
0.018876268 0.00019947116 0.03622301 0.015017532 0.02083621 0.021581454 0.0023329046 0.021613108
-0.0012948543 0.002393613 0.013339055 0.0032673234 0.051372863 -0.002086709 0.015348898 -0.002652755
0.004399192 0.0065933554 -0.0018724701 0.003003522 0.032123346 0.0303558 0.0043668267 0.008298777
0.031393357 0.02743278 -0.012587196 0.0070494465 0.0036121462 -0.027777156 0.096210316 0.031595897
-0.009627648 0.022531115 0.00046427935 0.0032811495 0.009664588 0.03160672 -0.0014129253 -0.0013009673
0.009923678 0.023824865 0.012136769 0.00360968 -0.00026151424 0.02482968 0.003273534 0.035180256
0.022170816 -0.015479381 -0.0015821066 0.07902926 0.019882163 0.0073580276 0.025349163 -0.024981413
0.018220212 -0.012622166 0.0032947431 0.09494216 0.017461691 0.019821066 0.007069176 0.017232008
0.021173624 0.008615395 0.033071656 0.069510035 0.028707173 -0.02463989 -0.002545543 -0.00318072
-0.0015185359 -0.0012714397 0.019721966 -0.017247258 0.067556225 -0.023097476 0.020973854 -0.025805384
0.093876526 -0.016898474 0.02307317 0.006454202 0.003597732 0.008525525 -0.025904376 0.013677546
0.008788686 0.009090499 -0.009745633 0.023450246 0.092892356 0.0047168913 -0.00803746 0.0040156

network.0.bias f4 [128]
00000000: d548 86bd 4691 8d3c c57c 10bd 0a8c 94bb
00000010: 0853 56bd 7fd9 acbd 25e4 b2bc ac96 213c
00000020: 45d0 f4bc d4ec 2ebd 538e 85bd a755 1c3d
00000030: 5b47 d5bd 48aa c9bd 4765 abbd 3dde a7bd
00000040: 2be1 19bd 2399 aa3a d35e 72bd 0124 0dbc
00000050: be6e 9dbb c8b0 e2bc 3c02 febc 254f 98bd
00000060: 58be b2bd b36d a0bd 41ba 3bbc 72da d33c
00000070: c7ff 96bc 4d6c 80bd 4be6 26bd 4e6e 883c
00000080: 8b0d 4cbb 00e4 97bd f0d7 273c cef5 243b
00000090: 54a9 1dbb e922 6dbd eb33 f9bc ba0c 17bd
000000a0: 6cf2 7a3c f89b 6bbd 4180 5ebc 5266 50bd
000000b0: c6c2 48bd 05f0 053b d71d a2bd 3208 2f3a
000000c0: 9608 99bd 9a87 64bc 9975 cfbd a73d ef38
000000d0: f946 4cbc 7a67 b03c 63dd 07bd 662e 8bbd
000000e0: 7b96 14bc 7ba9 74bb 8d76 99bd f67e a03c
000000f0: e5c1 8ebd 4bb0 8c3b 275c 23bd fff1 3cbb
00000100: 286c 273c 6261 d23c 5b4f a93c 4b47 97bc
00000110: b52c 84bc 96e1 a13b 3e73 2b3d 09bb 36bd
00000120: 52ae e83b 1019 cebb c389 99bd 0e7e d53c
00000130: 5fdb 6cbc 8bea 9f3c a604 43bd 1100 5cbd
00000140: 2753 85bb 4577 9cbd b8ba 33bd 9f6c 92bc
00000150: ba12 92bd c50f 00bc 790b d4bb 6aca b4bd
00000160: 670d 543b 0b7c 9ebc ea4b a9bd bb73 71bc
00000170: 7524 19bd 5c1a 693b 736f a4bd 55e2 0cbd
00000180: 1675 2fbc 63ef d0bc 34e5 a6bc 4877 0b3d
00000190: b80e 81bc 059f 63bc b110 56bd c3fb f43c
000001a0: 91c4 95bd 9151 62bc ea2c 23bd 1190 dcbc
000001b0: 4991 c2bc 851a b7bc 1c34 593c 578c 65bc
000001c0: 04a0 6ebd f815 18bd 23bc 993c 80f8 f2bb
000001d0: 6fe5 aebd a868 5b3b 4669 edbc 2199 223c
000001e0: 23b4 e2bc f551 1dbd d5ac e4bd 04e6 6cbd
000001f0: 0e56 ed3b fb03 a0bd f084 18bd 98f3 863c
-0.0655686 0.017281186 -0.03527524 -0.0045332955 -0.05232528 -0.084399216 -0.021837303 0.009862583
-0.029884467 -0.042706326 -0.06521287 0.038167622 -0.104140006 -0.09846932 -0.083689265 -0.081966855
-0.037568253 0.0013015609 -0.059172463 -0.008614541 -0.0048044613 -0.027672186 -0.031006925 -0.074369706
-0.087277114 -0.078334235 -0.011457981 0.025860999 -0.018432511 -0.06270657 -0.04074697 0.01665416
-0.0031136002 -0.074165344 0.010244355 0.0025170925 -0.0024057226 -0.05789462 -0.030420264 -0.03687737
0.015316587 -0.05752179 -0.013580383 -0.05087883 -0.049013875 0.0020437252 -0.07915848 0.00066769414
-0.07472341 -0.013948346 -0.10129852 0.00011407892 -0.012468093 0.021533716 -0.033170115 -0.06795959
-0.00906908 -0.0037332464 -0.07493315 0.01959179 -0.06970576 0.0042934767 -0.039882805 -0.0028830764
0.010218658 0.025681201 0.020667722 -0.018466612 -0.0161346 0.004940222 0.04185795 -0.044611964
0.0071008587 -0.006289609 -0.07496979 0.026061084 -0.014456599 0.019521018 -0.047611855 -0.053711
-0.0040687504 -0.07639936 -0.04387924 -0.01787406 -0.07132478 -0.00781626 -0.006471094 -0.0882767
0.0032356621 -0.019346258 -0.082664326 -0.014737065 -0.037388284 0.003556869 -0.0802907 -0.034395535
-0.010709068 -0.025504773 -0.020372964 0.034049302 -0.015754089 -0.013892894 -0.052262012 0.029905206
-0.07312883 -0.013813392 -0.039837755 -0.026924165 -0.023750918 -0.022351513 0.013257053 -0.01401051
-0.05825807 -0.037130326 0.018766468 -0.0074148774 -0.08539855 0.0033479128 -0.028980862 0.009924204
-0.027673787 -0.03840824 -0.111657776 -0.057836547 0.0072429245 -0.07813259 -0.037236154 0.016473576

network.2.weight f4 [128]
00000000: 401e 803f cd85 7e3f 91b4 7d3f 108a 7e3f
00000010: 9daa 803f 4cf3 813f 4017 723f 13c5 803f
00000020: b99b 7e3f cf4f 7f3f 6422 823f 967d 743f
00000030: 7d6c 803f 95e3 833f 9009 803f aa8c 823f
00000040: b9bf 7a3f 76ed 803f 2983 7c3f 9ac6 7c3f
00000050: 0aa5 823f d21d 7a3f cbfd 7c3f 8bbf 7f3f
00000060: 7161 813f ce8a 823f 90e1 823f 55d2 733f
00000070: 87d9 773f 841f 7e3f db90 783f 6c55 803f
00000080: 4dfc 7a3f 9c09 803f d7a3 7a3f 5263 803f
00000090: 4f3f 803f 7628 793f 2378 843f 560a 7d3f
000000a0: 3cf0 7e3f db7e 803f c9ff 813f 5925 803f
000000b0: a279 803f d78d 7b3f 77ba 813f 6e91 743f
000000c0: 2115 793f f3ea 7f3f f019 7f3f 2a48 7d3f
000000d0: 0776 7b3f a3f7 763f 1317 783f c088 803f
000000e0: 144a 7b3f 7f17 7b3f 1a04 7e3f 6dcd 803f
000000f0: e303 7f3f 3d1f 843f e1b4 823f c6f4 7d3f
00000100: daca 753f ff39 7d3f cb60 7f3f f351 7c3f
00000110: 0516 803f 4519 793f 6095 7e3f e238 733f
00000120: 47d0 813f 27fa 803f 372a 7c3f 4f4a 833f
00000130: 1a4a 7a3f 03b4 833f 94a9 7f3f 056e 7b3f
00000140: d5c8 733f c9e7 7c3f 4558 823f cfdf 7d3f
00000150: 4302 813f 2518 783f afea 833f 484e 813f
00000160: dab2 813f d35c 7d3f 6a28 7d3f dc44 803f
00000170: 48ef 7e3f 9f2d 743f 6157 7b3f 2db7 803f
00000180: 0696 813f 7097 713f 28e4 773f e914 823f
00000190: 2462 773f 357f 783f e395 813f 7250 833f
000001a0: 839a 813f 4cca 743f 4949 7d3f 0e5c 7e3f
000001b0: dc8e 803f cd12 733f f908 7a3f 81e6 7f3f
000001c0: 5cbf 813f 4b9d 793f e26e 7c3f 6029 843f
000001d0: 433a 803f 1caa 773f 32f4 783f abde 763f
000001e0: 1882 763f 6c7e 7a3f b2b5 823f 207f 793f
000001f0: e783 7d3f 2b51 823f f7a3 7c3f 2de1 803f
1.0009232 0.99422914 0.9910365 0.99429417 1.0052067 1.0152373 0.94566727 1.0060142
0.99456364 0.99731153 1.0166745 0.9550413 1.0033108 1.0303828 1.0002918 1.0199177
0.97948796 1.0072467 0.98637635 0.9874054 1.0206616 0.9770175 0.9882476 0.99901646
1.0107862 1.019861 1.0225086 0.95242816 0.96816295 0.9926684 0.9709603 1.0026069
0.9804123 1.0002933 0.9790625 1.003031 1.001932 0.97327363 1.0349163 0.98843896
0.9958532 1.0038713 1.0156184 1.0011398 1.0037119 0.98263305 1.013503 0.9553441
0.97297865 0.9996788 0.9964895 0.9893824 0.9822697 0.96471614 0.9691021 1.0041733
0.9815991 0.9808273 0.9922501 1.0062691 0.99615306 1.0322033 1.021145 0.9920162
0.9601265 0.9891662 0.9975707 0.98562545 1.000672 0.97304183 0.9944668 0.9500867
1.0141686 1.007634 0.98501915 1.0257052 0.9776932 1.028931 0.9986813 0.9821475
0.9522832 0.98791176 1.0183188 0.9916963 1.0078815 0.9691184 1.0305995 1.0102015
1.0132706 0.98969764 0.9888979 1.0021014 0.99583864 0.9538211 0.98180205 1.0055901
1.0123909 0.943717 0.96832514 1.0162631 0.96634126 0.970691 1.0123867 1.0258925
1.0125278 0.9562118 0.9893995 0.99359214 1.0043597 0.9495056 0.9766994 0.99961096
1.0136523 0.97505635 0.98606694 1.0325127 1.001778 0.9674394 0.9724761 0.96433514
0.9629226 0.97849154 1.0211699 0.974596 0.9902939 1.018102 0.9868769 1.0068718

network.2.bias f4 [128]
00000000: d376 f8bd 8dda 3f3d fd20 893d 3572 b63d
00000010: 05b2 f0bd 4231 00be 2843 1a3d 84e4 9d3d
00000020: 3eaf d2bd 63f4 a6bd a047 01be 3aef 963d
00000030: dfaf a7bd 7315 00be d34c 03be 4b1b 06be
00000040: aaeb 8dbc 8678 873d e0d7 a8bd ee25 2c3d
00000050: 0111 c73d c4bf a5bd 6f95 b43d 85df fabd
00000060: a95e b1bd 00b5 00be 12c3 e23d 1ef8 f33b
00000070: 0f93 ca3d 9f5e 04be b72a 3abd 8ab6 68bb
00000080: 8636 9dbb 70f8 d9bd e345 14bc 508e 553d
00000090: 0b8a ed3c 8137 85bd b147 5f3d 9d68 babd
000000a0: f92b 433d 498a cabd 48c1 f33d bd39 893d
000000b0: 3743 acbd 16bd 683d 488a efbd 1012 86b9
000000c0: 3596 88bd 2b57 01be 03c2 f4bd 8269 453d
000000d0: 6ebc c0bd 48df 6f3d 8853 73bd fd10 c6bd
000000e0: e86f e33d bec5 aa3d 80ad aebd 0297 ea3c
000000f0: 7e18 f5bd 3e8b 983c 18f2 edbd 1aae 703d
00000100: ddb0 17bd 79bb d83d 2402 ef3d f8a7 213d
00000110: 23f5 c43c b819 9b3d e6dd be3d 771a 093d
00000120: f0ae 5a3d 6650 cd3d 4002 c4bd f49b 753d
00000130: 38db da3b b181 c33d c2b3 acbd 6505 dbbd
00000140: 464b da3d bd1c 99bd dd9e 803d 1042 da3d
00000150: 1d20 dfbd 2814 073b e63b ee3d 23df adbd
00000160: 4f34 913d 4b06 1e3d 9b7a cdbd bf76 953d
00000170: 963a df3d 46c5 bebc 1ba2 abbd 99e1 d7bd
00000180: 6173 553d 29b0 d7bc d8fc df3b b48b 093e
00000190: bc6d 7a3d 00cd aebd 9c52 eebd 65a3 f93d
000001a0: 8f10 efbd 8f68 273c 35c9 503d 9177 cb3d
000001b0: 5365 9dbd 71cf b2bd 6d4f 273d b410 babd
000001c0: daca f2bd 04f6 1ebd 3a67 b13d 374d 8c3d
000001d0: 8181 e0bd 966e b63c a104 b63c a02e 523c
000001e0: 5d4b 7b3d 1ff9 afbd b03a eebd 5ba4 83bd
000001f0: 4deb 07bd e61a f9bd 2378 e13d fc89 08bd
-0.12132039 0.046839286 0.06695745 0.08908502 -0.117527045 -0.1251879 0.0376617 0.077096015
-0.10287331 -0.08152082 -0.12624979 0.073698476 -0.081878416 -0.12508182 -0.12822275 -0.13096349
-0.017324287 0.06614785 -0.082443 0.04202836 0.0972004 -0.08093217 0.08817565 -0.12249664
-0.08660633 -0.12569046 0.11072363 0.0074453494 0.098913305 -0.1292672 -0.045450892 -0.0035509192
-0.0047977595 -0.10643089 -0.009049865 0.052137673 0.028996488 -0.06504727 0.05451173 -0.09101985
0.047649357 -0.09889657 0.119021 0.06700466 -0.08411258 0.05682095 -0.11696297 -0.0002557193
-0.06669275 -0.12630908 -0.11951067 0.048196323 -0.0941094 0.058562547 -0.059405833 -0.09671209
0.11105329 0.083384976 -0.08529186 0.02863646 -0.11967562 0.018621083 -0.11618441 0.058759786
-0.037033904 0.105826326 0.1167033 0.039466828 0.024042672 0.07573265 0.093196675 0.033472504
0.05338949 0.100251004 -0.09570742 0.05996318 0.006678965 0.09546221 -0.084327236 -0.10694388
0.106588885 -0.074761845 0.06280301 0.10657132 -0.10894797 0.002061138 0.116325185 -0.084898256
0.07090055 0.03858022 -0.10033151 0.0729804 0.10899846 -0.023287427 -0.083805285 -0.10541076
0.052111987 -0.026329117 0.0068355612 0.13432199 0.061139807 -0.085351944 -0.1163685 0.12189368
-0.1167308 0.0102178 0.050973136 0.09934915 -0.07685342 -0.087309726 0.04084723 -0.09085217
-0.11855097 -0.038808838 0.08662267 0.06850665 -0.10962201 0.022269528 0.022219004 0.012828499
0.06135117 -0.08592438 -0.116322875 -0.06427833 -0.033183385 -0.121633336 0.110092424 -0.033334717

network.2.running_mean f4 [128]
00000000: 1f09 023e 55f7 e03d 5622 963d 63eb d53d
00000010: d810 fd3d 7f0e c23d 8842 c63d 8ad5 053e
00000020: ba4d f53d 2efe eb3d 7e67 c13d 6e8b 6c3e
00000030: 325b bf3d 3e51 c93d b94b a93d 5620 903d
00000040: 35e5 b43d 2958 1e3e 89b4 c63d 0686 aa3d
00000050: 0bf3 083e a950 e23d a749 c83d 3b85 063e
00000060: 71aa a93d fc40 023e 3328 e73d 9f06 203e
00000070: 6c0c 2a3e aacc 003e 7b0f b63d 0c77 e53d
00000080: b522 323e 6fd4 e53d 308d 093e 65f9 113e
00000090: 2a08 c73d 5ce0 af3d 797e b23d 0092 f83d
000000a0: e477 f33d 4824 0e3e e31f 273e 6a75 a63d
000000b0: 863c 113e 4355 c83d e84c 083e 226f 193e
000000c0: a25a 9b3d 868e 093e da3a c23d 4980 cd3d
000000d0: deed ff3d 4700 163e ca7d fd3d 54ad dc3d
000000e0: de7f bf3d 4506 b63d 7982 d43d eeef 2b3e
000000f0: 0963 1f3e b5fa ec3d bdf5 263e 5998 e63d
00000100: f6e1 0c3e c576 193e a8e2 273e e5a2 a23d
00000110: 1a49 f13d af38 153e 924c 733e e494 cc3d
00000120: 2d60 cf3d 0e47 e63d fef9 be3d 7370 0c3e
00000130: b67e cb3d 6910 203e 16dd bb3d e009 093e
00000140: a21b b43d 05bb b73d 5fbc b23d 5b8e f83d
00000150: 9564 b43d 1064 e73d d3f9 1c3e 36fd c53d
00000160: 49f2 e83d b654 263e 8007 033e 520b ce3d
00000170: 4e80 b33d f5ff 003e c3a9 b33d a4b2 d53d
00000180: 9ded d13d 76ca 0e3e 60f7 c73d f8f2 733e
00000190: 8cc2 a03d b71c 0a3e d38d 143e 3fc1 513e
000001a0: f72f c93d 788b 093e 48e4 ce3d 8c71 bd3d
000001b0: c767 f43d 6165 e83d b6e2 fb3d 4f8c f93d
000001c0: ccb6 dc3d 1259 263e 7f07 283e d9a9 033e
000001d0: bb3f d03d d5b5 a53d 48fd c73d 84b3 be3d
000001e0: fc4c c13d 80ae fa3d 5d48 cf3d 194e be3d
000001f0: af42 243e 3ae8 d63d e8f8 8f3d 6dc3 433e
0.12698792 0.10984675 0.07330768 0.10445287 0.12356728 0.09475421 0.096806586 0.1306974
0.11977716 0.1152309 0.09443568 0.23100063 0.09343566 0.09829949 0.08266396 0.070374176
0.0883278 0.15463318 0.09702403 0.08326344 0.13373964 0.11050541 0.09779673 0.13136761
0.08284462 0.12720102 0.11286964 0.15627526 0.16606301 0.12578073 0.088896714 0.11204347
0.17396052 0.11222159 0.13432765 0.14255293 0.09718354 0.08587715 0.08715529 0.12137222
0.11888102 0.13881028 0.16320758 0.08127864 0.14183244 0.097818874 0.13310587 0.149838
0.07585646 0.13433275 0.09483881 0.10034234 0.124965414 0.14648543 0.12377508 0.10775247
0.093505606 0.088879146 0.10376448 0.16790745 0.15565123 0.11571256 0.16304679 0.11259527
0.13758072 0.14986713 0.16395056 0.07941226 0.11781521 0.14572404 0.23759678 0.09989336
0.10125766 0.11244021 0.09325026 0.13714771 0.099362776 0.1563126 0.09173028 0.13382673
0.08794333 0.08971218 0.08727335 0.12136527 0.08808247 0.11298382 0.15329675 0.09667437
0.11374337 0.16243252 0.1279583 0.10060753 0.087647066 0.1259764 0.08772614 0.104344636
0.10250399 0.1394442 0.0976398 0.23823154 0.07849607 0.13487516 0.14507227 0.20483874
0.09823602 0.1343211 0.10102135 0.09250173 0.119338565 0.113474615 0.12299101 0.12184965
0.10777053 0.16244915 0.1640911 0.1285776 0.101684056 0.08091322 0.097651064 0.09311584
0.09438512 0.122403145 0.10121224 0.0929224 0.16041063 0.104935125 0.07029897 0.19117518

network.2.running_var f4 [128]
00000000: b433 353e b53c a53d ba65 9d3d e2e1 d63d
00000010: 821e 303e c6dc bf3d f117 e13d bfcd 063e
00000020: 36ed ef3d 60c4 ae3d cfa9 c03d 56b8 cb3d
00000030: 809f e23d 5cca f63d c437 893d 7627 9e3d
00000040: 6dea da3d c095 1e3e be1a d43d bf64 163e
00000050: c22e 573e 6153 163e 6ff4 ab3d 8a7c 1b3e
00000060: 0c5e 013e 9d13 0b3e 7462 373e 654a 5c3e
00000070: 5597 0e3e 2c32 023e 78e3 233e e6c3 d63d
00000080: 8452 2b3e 89c3 ec3d 055a 133e 2d99 563e
00000090: 3cf8 e03d f65d b63d 34d7 e13d a5d5 ff3d
000000a0: 5030 003e 8a6f 853e aaf0 0b3e 7635 183e
000000b0: f7b9 293e a245 163e 5b8f 253e 5da4 f53d
000000c0: c661 d93d 5ddf e03d 6749 033e 08ae b03d
000000d0: 44e6 ed3d 15c4 103e fb33 063e c1e3 0a3e
000000e0: b8ab 053e 585c 0c3e b166 0a3e c841 2b3e
000000f0: ed8c 3d3e d40b 0d3e 69cf 833e c914 b93d
00000100: 048d 183e d255 dd3d e835 fc3d 79c6 343e
00000110: f902 383e e531 933e 6d64 5c3e ae3f 0d3e
00000120: 7d84 3b3e f522 2e3e 24f1 2e3e 6e9d cd3d
00000130: be72 7c3d f728 113e 6bc1 d83d c928 773e
00000140: abe4 fb3d 14e7 f63d 6307 093e 20c5 c73d
00000150: d7e8 8d3d 1706 1a3e 0a53 8c3d d002 123e
00000160: ee20 193e ca43 133e 0818 423e 76b5 8a3d
00000170: 6b4c 363e 49e1 3e3e 0c8f e13d 4d2d a93d
00000180: 8f5c e53d 209f 4d3e 5a38 e23d dd50 e33d
00000190: 731c bc3d 0cf2 363e cdda 2c3e 7e0c d63d
000001a0: 1204 e13d c6c6 0b3e 602b 3c3e 0cac c33d
000001b0: 3c09 e53d 7e67 f63d c93d fe3d d5b8 703d
000001c0: ed38 6b3d 2b11 3a3e 771d 483e 7ca5 153e
000001d0: 3308 0c3e 41bf 103e fde4 0a3e 64a7 e43d
000001e0: ab3e de3d 8453 463e 9823 123e e94e cc3d
000001f0: c4e7 2f3e d971 e63d 7298 9b3d aa7d 993e
0.17695504 0.080682196 0.076854184 0.104923025 0.17199138 0.09368281 0.109908946 0.13164423
0.11715166 0.08533549 0.094073884 0.09947269 0.110655785 0.12050316 0.067000896 0.0772237
0.106892444 0.15486813 0.10356663 0.14686869 0.2101393 0.14680244 0.083962314 0.15184227
0.12633532 0.135817 0.1790865 0.21512754 0.13924916 0.12714452 0.16004741 0.104865834
0.16730696 0.11560733 0.14389808 0.2095687 0.10984847 0.089046404 0.11027375 0.12491921
0.1251843 0.2606166 0.13666025 0.14864144 0.16574846 0.14675 0.16167967 0.119942404
0.10614352 0.10980103 0.1282097 0.08626944 0.11616185 0.141373 0.13105766 0.13563444
0.13053787 0.13707101 0.13515736 0.16724312 0.1851079 0.13774043 0.2574418 0.090371676
0.14897543 0.108073846 0.12314969 0.17653836 0.17969884 0.28749004 0.21522684 0.13793823
0.18312259 0.17005523 0.17084175 0.10039793 0.061632864 0.14175783 0.105837665 0.24136652
0.12299474 0.120557934 0.13381724 0.097543955 0.06929176 0.15041386 0.06851776 0.14258885
0.14953968 0.14381328 0.1895448 0.06772892 0.17802589 0.18640627 0.11013612 0.082605936
0.11199295 0.20080233 0.110459045 0.11099408 0.09185114 0.17865771 0.16880341 0.104516014
0.109871045 0.13650045 0.18375921 0.095543 0.11183402 0.12031458 0.12414128 0.05877002
0.057427336 0.18170612 0.1954249 0.14613909 0.13675003 0.14135458 0.13563915 0.1116474
0.10851797 0.19367796 0.1427139 0.099759884 0.17178255 0.112521835 0.07597436 0.29978687

network.4.weight f4 [64, 128]
00000000: 42de e7bb d1a9 dcbc 5981 d3bd 5bb0 d3bd
00000010: 1a3f a7bc 3744 34bd 6c1e adbb 5d54 ca3c
00000020: 1067 783d 6117 48bd 1fbb a53c 14a2 dabd
00000030: 690a 5cbc 2afd 9f3d 1ab9 8f3d 3de0 733d
00000040: 20f7 a43c 5522 acbd 7a42 063b d1d6 1d3d
00000050: 65a6 2cbd f652 323d aec5 983c bfa4 bb3d
00000060: c021 e8bc 4a95 8d3d 9c31 dfbd ede2 273d
00000070: 3d91 963c a183 483d c9e1 09bc d7b7 19bc
00000080: fd34 693d c9b5 c63c 11b5 48bd e92f 11bd
00000090: a219 1b3d 1a8d 5c3d 2917 65bd 4d0e dc3d
000000a0: 5cc6 29bd 7a01 2fbd da7a 2c3c b302 b0bd
000000b0: 7fda 8e3d 0384 f73a 3ee5 de3d cc1c 86bd
000000c0: f77b 93bd 16a3 873d 07a6 8eba b2c4 433c
000000d0: d7bb 933d bcfb 29bd 3083 bcbb 808c dfbc
000000e0: a5a9 c6bd bee1 afbd f8d1 243d 3c4a 153c
000000f0: 5526 a53d 8e4f 96bc 6a19 d53c 4bce 9a3a
00000100: 20b1 143d 6a81 23bd f99f 8bbd a180 b8ba
00000110: 1d84 2d3d bf6b fc3a 8460 e03c c3be 8cbd
00000120: c152 b53c 75f3 c3bd c528 123d c35f 48bd
00000130: d9ea d1bc 52cc debc a928 4f3b 0cdc 1b3d
00000140: 26b6 82bd 6692 e6bb 27ad c4bd a49d 0dbd
00000150: 1047 993d 7384 9fbd 252c 8c3c 10f8 44bc
00000160: be9a b2bd 49fb 1e3d 8fa9 1b3c 2aae 8fbd
00000170: 2116 533c cd6e 713d 4068 e4bc ce04 4ebc
00000180: 07b1 37bd eed2 9c3d 4e07 3dbc adee d1bc
00000190: 7f08 c7bd 9731 9a3d d85f 803c 1ab9 39bd
000001a0: 7e41 4ebd 1383 1e3d 2632 98bd 2a12 01bc
000001b0: 3acf df3b f79a 5d3d e402 81bd 41d0 903d
000001c0: 4e09 cf3b 4018 173d d953 a03c b6df c2ba
000001d0: b918 873c 9c3c acbc 6a00 703d 6798 9dba
000001e0: 906e 5a3b 7683 0abd dceb 243d c64d 31bd
000001f0: 4bf4 3abd 293f 873c e71e cc3c aef1 3f3b
00000200: 101b 1a3d c635 85bd 6a25 b4bd e4d4 243d
00000210: 174f 0d3d 174e b1b7 2ded 06bd 3b24 8bbc
00000220: 6592 6abd f4c9 6c3c 4ba0 3abc b501 8bbd
00000230: 812d a13d 4c35 9fbc 6085 403d 9db0 713d
00000240: 9fe0 043d da6f 06bc c3cf 613d 5594 8f3d
00000250: a6d4 46bd 9f88 693d 5d83 64bd 96e2 72bc
00000260: 4681 8f3d 7627 a13c a95a 453d 9541 a33b
00000270: 2dfb 4abd f3b4 113d abf3 853d 4436 a0bd
00000280: 62e2 dabc b43e 2a3d 8e12 09bd 8b23 acbd
00000290: a66d b3bd a092 d63c cf09 bdbd 4d61 1d3d
000002a0: 8ab8 a3bd e6ce aeba d977 47bd b7f6 90bd
000002b0: 0fa6 28bd 641d 86bd 780a 33bd cd36 33bd
000002c0: 5500 0e3d 37ab 493d b445 af3d 98fd 3ebd
000002d0: 7868 513c b60a 82bd ec98 85bd 9e60 31bd
000002e0: cbae 2d3d 1976 343d 0a18 1c3d 7d80 92bd
000002f0: 3de7 44bd e839 183d 4a7d ce3b b63e 93bd
00000300: 3dfe 0bbd 2b73 b5bd d70c a6bc d16b 163d
00000310: d655 55bd bb51 c5bc fa13 3fbd 3139 793d
00000320: 2b18 c9bd c7ce dd3c aedb 4e3d 4927 0ebc
00000330: d2e3 1f3d e30d e0bc 0b4a 753d 16bb 74bb
00000340: 8b81 423d 666a 173d d42f 253d 49cf 9cbd
00000350: 10e6 843d 980a 4ebd 6b11 a6bd f62b 0fbd
00000360: d0b8 c5bd 7d2c c8bd 96fd b8bc 8861 87bd
00000370: 0d65 4fbd 523b a2bd c6e6 50bc 3c1e 04bd
00000380: 84a7 62bd 8c2a 82bd 6baf 48bd 3dc7 13bd
00000390: 5d57 983c 03ff 03bd ad2f 22bc afd7 2abd
000003a0: 91c4 0c3c 2544 403d 2265 10bc 27f7 d7bc
000003b0: 2166 8c3d cfc2 233d d170 263d 27f6 113d
000003c0: a7c4 863b e038 193d 86b7 4b3d 1bb2 62bd
000003d0: d6fb b23d c54f 933d d503 9ebd 355e 57bd
000003e0: 8707 9fbc 2785 593d c8cc ecbc b231 da3c
000003f0: e41a 103d b160 fc3c 6127 023d d91f 4ebc
-0.0070760557 -0.026936444 -0.103274055 -0.103363715 -0.020415831 -0.044010367 -0.0052831676 0.02469843
0.060645163 -0.04885042 0.020230828 -0.10675445 -0.013430216 0.07811959 0.07017727 0.059540022
0.02013737 -0.08404986 0.00204864 0.038534943 -0.042150874 0.04353615 0.018648949 0.09162282
-0.028336406 0.0691324 -0.10898134 0.040987898 0.018379802 0.048953656 -0.008415648 -0.00938221
0.0569353 0.024256604 -0.049000803 -0.03544608 0.037866242 0.053845502 -0.05593029 0.10744915
-0.041448936 -0.042726018 0.010527337 -0.08594265 0.069752686 0.0018883947 0.10883568 -0.06548461
-0.07201379 0.06622903 -0.001088322 0.011948751 0.07213562 -0.04149984 -0.0057529435 -0.027288675
-0.09700326 -0.08587979 0.040239304 0.009111937 0.08063952 -0.018348482 0.026013095 0.0011810748
0.036301732 -0.03991834 -0.06817622 -0.001407642 0.04236232 0.0019258185 0.027389772 -0.068723224
0.022134187 -0.0956792 0.035683412 -0.04891945 -0.02562468 -0.027197037 0.0031609929 0.03805165
-0.06382398 -0.007036495 -0.09603339 -0.034574166 0.07484257 -0.077889346 0.017110894 -0.012022033
-0.08720921 0.038813863 0.009500875 -0.07015641 0.012883694 0.05894356 -0.027881742 -0.012574388
-0.04484656 0.07657419 -0.011537386 -0.025626505 -0.097184174 0.0752899 0.015670702 -0.045342542
-0.050355427 0.03869922 -0.0743144 -0.007877866 0.0068301233 0.054102864 -0.062993795 0.07070971
0.006318248 0.03688836 0.019571232 -0.0014867696 0.01649128 -0.021024995 0.058594145 -0.0012023569
0.003333006 -0.033816777 0.040263996 -0.04328706 -0.045643132 0.01650961 0.02491708 0.002928834
0.037623465 -0.06504397 -0.08796199 0.04024209 0.034499254 -2.1136408e-05 -0.032941032 -0.01698505
-0.05726852 0.014452446 -0.011390756 -0.06787435 0.07870007 -0.019434594 0.047002196 0.059006322
0.032440778 -0.008205378 0.055129778 0.07010714 -0.04854264 0.057015058 -0.05578934 -0.01482453
0.07007079 0.019672137 0.048182163 0.004982183 -0.049555946 0.035572957 0.065406166 -0.0782285
-0.026719276 0.041563705 -0.03346496 -0.08405217 -0.08761148 0.026192963 -0.092303865 0.03842287
-0.079941824 -0.0013336807 -0.04869828 -0.07078307 -0.04117399 -0.065485746 -0.043711156 -0.043753434
0.034668285 0.04923555 0.08558217 -0.046628565 0.012781255 -0.06349699 -0.06523308 -0.043305032
0.042403024 0.04405794 0.038108863 -0.071534134 -0.04807209 0.0371646 0.0063015567 -0.071896955
-0.034178007 -0.08859857 -0.020269794 0.036723915 -0.052083813 -0.024086824 -0.04664991 0.060845558
-0.09819063 0.027076138 0.05050247 -0.0086763585 0.039035626 -0.027350372 0.059885066 -0.0037342957
0.047486823 0.036966704 0.040328816 -0.07656724 0.064891934 -0.05030307 -0.08108791 -0.034954034
-0.09654391 -0.097741105 -0.022581857 -0.066103995 -0.05063348 -0.07921471 -0.012750333 -0.032255396
-0.055335537 -0.063557714 -0.048995417 -0.03607868 0.018596346 -0.03222562 -0.009899062 -0.0417096
0.008591787 0.046939988 -0.008813174 -0.026362969 0.06855417 0.039980706 0.040634934 0.03563514
0.0041127983 0.037407756 0.04973557 -0.055345636 0.0873944 0.07192949 -0.07715575 -0.052580077
-0.019412769 0.0531055 -0.028906241 0.026635025 0.035181895 0.030807825 0.031775836 -0.012580835

network.4.bias f4 [64]
00000000: b1bd 2bbd 46cc d7bd 8be9 503d 10ea 06be
00000010: 43f2 e5bd c20a 3dbc c59f 80bd aa5e a2bd
00000020: 923f cfbd 242d 84bd 2f25 b0bd 687f d7bd
00000030: 90a2 debd eb1a f1bd 71fd 0ebe bf87 25be
00000040: 4701 353d e6b0 293d 3022 e93c f778 503d
00000050: c6bc 103e 4149 a8bd a912 47bd 37f1 043e
00000060: c6d9 d2bd 99fa c13d e7e1 77bd 0ae5 fcbc
00000070: a194 86bd ffd9 dd3d d6c5 323e db8d cbbd
00000080: 3811 0bbe d97f 0abe f102 423c 30e0 a43d
00000090: 029e 133e 23bc f43c ca18 1ebd fd64 38bd
000000a0: 4475 5bbd 80bc ccbd 4992 0fbd 7d65 9fbd
000000b0: 877f 2ebb ce24 63bd ac41 34bd 49ec a1bd
000000c0: b8f8 d1bd 877d cebc b406 223e 55d5 89bb
000000d0: 4e4d 963d 5869 d5bc 41ff 8ebd 5e91 08be
000000e0: 15a8 b6bd 0c58 33be ccb6 9c3d dc2d 83bd
000000f0: b68e 24bb 0d39 8fbd 7312 9abd d712 073e
-0.04192895 -0.10537009 0.051003974 -0.13175225 -0.112278484 -0.011538209 -0.062804736 -0.07928212
-0.10119547 -0.064539224 -0.08600842 -0.10522348 -0.1087085 -0.11772712 -0.13963868 -0.16165064
0.04419067 0.04142847 0.028458685 0.05089661 0.14134511 -0.08217097 -0.04860178 0.12982641
-0.10295443 0.09471626 -0.06051817 -0.030870933 -0.065713175 0.10832595 0.17458281 -0.09939166
-0.13580787 -0.13525333 0.011841522 0.08050573 0.14415744 0.029874867 -0.03859786 -0.045018185
-0.05357863 -0.09996891 -0.035051618 -0.07783029 -0.0026626305 -0.05545502 -0.044007942 -0.07906396
-0.102525175 -0.02520634 0.1582287 -0.0042063394 0.073389634 -0.026051208 -0.069822796 -0.13336703
-0.08918778 -0.17514056 0.07652053 -0.06405231 -0.0025109476 -0.069933034 -0.0752305 0.1319078

network.6.weight f4 [64]
00000000: 7e87 693f be94 893f eb42 833f f494 6c3f
00000010: 64d9 7f3f 314e 853f e5fc 843f bc81 5f3f
00000020: 920e 823f 42e4 843f 31d4 803f b89c 723f
00000030: a973 753f 2d2e 7c3f 5596 7a3f 7f7d 843f
00000040: 1379 5e3f e60a 523f bf05 5e3f 5ff6 623f
00000050: f975 7f3f cb3c 843f d150 5c3f 56c4 523f
00000060: 838a 823f b081 7a3f 81da 7e3f b80b 6e3f
00000070: 11bc 853f 2d1e 793f 2f57 703f 1fb6 753f
00000080: 7cdb 5f3f 113c 7c3f 1e04 583f e134 763f
00000090: bff0 813f fb74 6f3f 05d8 5c3f d736 813f
000000a0: 2be4 843f 87e9 6a3f e42c 5b3f 1474 683f
000000b0: bdfd 723f bcbb 7a3f 1034 7e3f 9c1c 6e3f
000000c0: 15de 7b3f f5c7 813f 6b83 763f 7b92 633f
000000d0: bbbc 823f 8e39 823f 61ea 7c3f bfbe 863f
000000e0: a532 7d3f b762 753f f4bb 693f c5ea 6d3f
000000f0: 3c30 723f 492b 723f dce1 583f ab27 6b3f
0.9122237 1.0748518 1.0254797 0.92414784 0.99941087 1.0414487 1.0389677 0.87307334
1.0160697 1.0382159 1.0064756 0.94770384 0.9587961 0.9850796 0.9788564 1.0350798
0.86903495 0.8204788 0.8672752 0.8865718 0.99789387 1.0331053 0.86060816 0.82330835
1.019852 0.9785414 0.9955216 0.9298663 1.0448018 0.9731167 0.9388303 0.9598102
0.8744428 0.98529154 0.8438128 0.96174437 1.0151595 0.93537873 0.8626712 1.0094861
1.0382131 0.91762584 0.8561537 0.9080212 0.94918424 0.9794271 0.9929819 0.93012404
0.98385745 1.0139147 0.9629428 0.88895386 1.0213846 1.0173814 0.98795134 1.0526961
0.989054 0.9585375 0.9130242 0.92936355 0.9460485 0.945973 0.84719634 0.91857404

network.6.bias f4 [64]
00000000: 9630 74be fd79 d6bd 8b7b 57be 32d1 49be
00000010: 67ec 19be 84c7 07be 6dbf 14be cfd5 68bd
00000020: e46d 2bbe 9aa6 23be f312 04be 5c93 4bbe
00000030: 33eb 34be 6a7e 3ebe 42f6 29be 3ea7 23be
00000040: 0d8f 3bbd 7baa 643e 3c73 993e ed08 e4bd
00000050: e2ca 933d df1d 25be c8e5 843d ddce a13e
00000060: 1ab0 1dbe 8e20 bdbd abc3 33be bee1 6bbe
00000070: 6148 e8bd b8df 7e3d 2a24 db3d 75ae 14be
00000080: a3b9 59be 3196 39be e26e 47be e4b9 183e
00000090: 4d14 c13c f37b 313d 9dab 4fbe e146 29be
000000a0: 1b1e 19be 8c25 57be 9c88 a9bc f32c 9f3e
000000b0: 8e6a 56be 17a4 463e 6a43 2dbe a58b 33be
000000c0: 742b c4bd 87ed fcbd 4046 dd3d 47e4 ccbd
000000d0: 0dc8 f33d 4c3e 35be acf5 1cbe da2b 26be
000000e0: 94d0 6dbd d470 3ebe 0369 5cbe e3d7 1e3c
000000f0: 6f88 1ebe 1d74 36be 89f5 763e 8922 233e
-0.23846659 -0.10472486 -0.21043222 -0.19708708 -0.15031587 -0.13259703 -0.14526148 -0.05684453
-0.16741139 -0.15981522 -0.12897854 -0.19880432 -0.17667846 -0.1860291 -0.16597846 -0.15981767
-0.04579072 0.22330658 0.2997073 -0.11134515 0.07216431 -0.16124676 0.0648914 0.31603137
-0.15399209 -0.09234725 -0.1755511 -0.23035333 -0.1134193 0.062225074 0.10700257 -0.14519675
-0.21262221 -0.181237 -0.19475892 0.14914662 0.02356925 0.043331098 -0.20280309 -0.16530944
-0.1495289 -0.21010417 -0.020695023 0.3108898 -0.20939085 0.19398533 -0.16920248 -0.17533739
-0.095786005 -0.12349992 0.10804415 -0.10004478 0.11903391 -0.17699546 -0.15328091 -0.16227666
-0.058060244 -0.18597728 -0.21524434 0.009695026 -0.15481733 -0.17817731 0.24117102 0.15931143

network.6.running_mean f4 [64]
00000000: df1d 7d3e 7188 e63d a2e3 3e3f 2291 6f3e
00000010: b68c 833e 15fc 3e3e 6a0e 273e e2fa a83e
00000020: 1476 3a3e 4828 5d3e 7757 303e f41c 6a3e
00000030: 1aba 703e b84d 653e 0452 663e 0b88 193e
00000040: 2059 eb3e 1036 7c3e 4f68 5a3e 90a3 123f
00000050: 7f20 3a3f e326 493e c401 863e 14b0 8e3e
00000060: 00c8 453e 034f 5d3f 19a9 7f3e 336d 123f
00000070: 49f8 503e f6be 283f 2b3d 4f3f 688c 3a3e
00000080: 6aa4 383e 7753 683e 1a58 bb3e afdf 0f3f
00000090: 1959 423f 45b0 3f3f a2ff b33e 56fb 613e
000000a0: 6532 433e 0559 583e b67a 943e 65cc e23d
000000b0: a216 8a3e 278b 013e 34f8 583e 59c3 783e
000000c0: cbb9 093e d956 5d3e d286 2c3f eb39 da3e
000000d0: 95c9 363f bf17 7f3e d742 7f3e e4ae 1d3e
000000e0: 2968 143e 2fbf 463e 9ef9 aa3e 04cd 533e
000000f0: e466 7c3e 222e 423e 5e31 c23e 207d 473f
0.24718426 0.11256493 0.7456609 0.23395208 0.2569329 0.18650849 0.16314092 0.33003908
0.18209106 0.21597397 0.17220865 0.22862607 0.23508492 0.22392929 0.22492224 0.14993303
0.45966434 0.24629998 0.21328853 0.57280827 0.72705835 0.1964374 0.26173222 0.27868712
0.19314575 0.8644869 0.2496685 0.57197875 0.20407213 0.65916383 0.8095271 0.18217623
0.18031469 0.2268809 0.36590654 0.5620069 0.759172 0.7487834 0.3515597 0.22068533
0.19062193 0.21127708 0.2899987 0.110741414 0.26970392 0.12650739 0.21188432 0.24293269
0.1344978 0.21615161 0.6739322 0.42622313 0.7140134 0.24911402 0.24927841 0.15398747
0.14492859 0.19408868 0.33393568 0.20683676 0.24648625 0.18962911 0.3792829 0.779253

network.6.running_var f4 [64]
00000000: 3d38 1b3f 1694 2d3e ad0b 503e adbf 133f
00000010: 9459 2b3f 22d3 dd3e 6f92 9d3e bc5d 443f
00000020: d51c bd3e 1788 033f 661a ae3e 03a9 0d3f
00000030: 098d 063f e3ac ff3e 1e03 0d3f a11e 893e
00000040: 1fbc c53e 3495 d13e 417c d13e 18a4 693e
00000050: a177 463e e0a2 cb3e baaf ef3e e7a8 1a3f
00000060: a4a0 e13e bba1 823e 63be 173f beb1 893e
00000070: 64c2 d23e f9c4 2e3e 7e1d 633e f9cf c63e
00000080: 1042 ae3e df4f fd3e 429e 3a3f a34f 0c3e
00000090: 8c6b 5a3e 6c52 603e f490 9e3f 9812 f93e
000000a0: 8346 d73e 1331 ef3e 7d15 563f f9b4 1c3e
000000b0: 12af 223f 742a 063e 1e46 d33e c955 193f
000000c0: 8cc4 833e b37e 033f 5287 453e 681d 973e
000000d0: af6c 493e a60c 203f 572a 163f 236b 9e3e
000000e0: 09a9 873e 0ad8 c23e 8d05 463f 6d58 f13e
000000f0: e4e3 153f 052a d23e 98d1 c63f 7eb0 803e
0.6063269 0.16951022 0.20316954 0.5771435 0.6693356 0.43325144 0.30775782 0.7670553
0.3693606 0.5137953 0.34004515 0.55336016 0.5255895 0.4993659 0.5508288 0.2678118
0.38620088 0.40934145 0.4091511 0.22816503 0.19381572 0.397727 0.46813756 0.60413975
0.44067872 0.25514016 0.5927488 0.2689342 0.41163933 0.17067327 0.22179219 0.38830546
0.34034777 0.49475 0.7289773 0.13702254 0.21330088 0.21906441 1.2387986 0.48646998
0.42045984 0.46717128 0.8362654 0.1530341 0.63548386 0.13102132 0.41264433 0.5989652
0.2573589 0.513652 0.19289902 0.29514623 0.19670366 0.625193 0.58658355 0.30941114
0.2649615 0.3805545 0.7735222 0.47137776 0.5855086 0.41047683 1.5532713 0.25134653

network.8.weight f4 [32, 64]
00000000: 6019 a4bd 6f4c 61bd d58a 7bbc a2db e3bd
00000010: 3bf6 03be 4147 e0bd f203 6dbd f791 0bbb
00000020: 40a5 a7bd c45f dfbd d56a 86bd 1a28 cabd
00000030: 8453 d7bd 4ce6 e4bd ee0a f1bd b909 a5bd
00000040: 420d 61bb cead d33c e263 c73c 0749 3cbc
00000050: 5cf9 f63b 3ec2 d7bd 2a25 7f3c 91c8 b43c
00000060: da03 01be 25b2 c1bb 575a a0bd 2d61 8cbc
00000070: 1d5f fdbd 1e8b fb3b 3f76 0e3c 9ca1 b3bd
00000080: 7382 c4bd b50d ccbd 83b2 b5bc dbcd 113c
00000090: d610 103c 0e44 d23b 52df b9bc 1ea1 dbbd
000000a0: a383 8ebd 2f49 f0bd 7950 193a 8a05 8d3d
000000b0: ff44 61bd ca41 363d 972f d8bd 7a9a 8abd
000000c0: 6005 bbbc c643 cbbc ccbb 263c c7ac 8c39
000000d0: f880 3d3c cd87 d7bd e2f7 f8bd 5dec b8bd
000000e0: 7544 ccba b530 00be a316 9b3b 8a70 73bd
000000f0: 059e e2bd be57 a8bd 83a0 053d 9c65 393c
00000100: 03ba a9bd 61c5 fe3d ac48 dabd 69f3 73ba
00000110: 8c90 c53d 53d8 0bbc 1d19 0b3e cac8 8dbd
00000120: 7da8 f63d eb05 84ba 78c1 aebc da7b a73d
00000130: fd6c ed3d 2062 c3bc 6897 d13d 619f de3d
00000140: cd3c 5b3d 4806 5e3d 7c88 df3d 1739 ffbd
00000150: befe d6bd 7391 5dbc bffc ee3c af2c 89bd
00000160: 69cd ec3d 2c11 11be 7500 a53d 00de 8cbb
00000170: 2bb6 193d 4951 2dbe b75d 6bbd e9e5 063e
00000180: 50c5 9d3c b084 ef3d cb9d 87bd d435 1abe
00000190: 6620 fbbc e353 b9bc 6f5b 86bd ad57 3d3d
000001a0: a0dc 553d 45ca 433c b411 88bd 07ef 663d
000001b0: d1ec 2a3d 3b9a 033e 0cc4 f8bb ba95 b23d
000001c0: 8ba3 53bc adfe b33d e84a 98bd bee2 dcbd
000001d0: b717 9cbd dcd2 bb3d 6500 52ba 7748 fb3d
000001e0: da95 c3bb 66ef 26bd fb3b 85bd 0cd3 813b
000001f0: 84b7 973d 2285 e73d 74b2 b63c 9370 99bd
00000200: 53f7 a8bd e75a 66bd 51a2 5fbc 38dc cfbd
00000210: 4aa8 e5bd 7dcd 33bd 4472 96bd 027c 143b
00000220: 9306 a0bd 9c09 b5bd bfd4 45bd 4de4 abbd
00000230: a8cd aabd c200 c4bd 601b bbbd 2775 dcbd
00000240: 44fe 133a 9a67 3e3c 2f26 ac3c 9de0 98bb
00000250: dc51 483b 3692 51bd 65e6 e73b 1333 953c
00000260: dc86 e5bd 540e bbbb bee5 a9bd 18d7 0bbc
00000270: 18b3 c8bd e364 e53b 9264 bc3b ed5f bfbc
00000280: b0a1 94bd 11c3 d6bd c465 37bc ba2b 193c
00000290: b6d3 e139 cfcb 8c3a 4526 04bb 7415 9bbd
000002a0: db94 b4bd f4a1 d0bd e1f1 453b 8a01 0a3d
000002b0: 40c6 1dbd 6d85 fe3c 4bbd c7bd 0509 cabd
000002c0: 04f7 24bd 362f 9cbd eec3 c13b 0e2d f3b8
000002d0: 41de 053c 7080 bebd 2901 d2bd f374 aabd
000002e0: af20 aabc 2860 e3bd 998f 43bc 2e8c ff3c
000002f0: 6a28 d8bd dd72 75bd dae8 3d3c 75a4 3c3c
00000300: ace7 b3bd 5bb4 6abc 7cf0 a9bc 31eb 0fbe
00000310: dce8 29be ea39 fbbd 6112 5ebd 37e4 55bc
00000320: 947d 03be 473f f0bd 5eb2 dbbd 2213 e5bd
00000330: aefe c7bd d5e3 13be fed7 13be 7b4a 1abe
00000340: 26c6 3c3c 3940 c33c e6aa 013d 517f 25bc
00000350: 0c9d f73b 899a 01be f2df d2bb e62a a93c
00000360: 4e5b 20be 89e1 90bc c360 b4bd bf3f 58bc
00000370: 4f59 19be 29cc 2b3c ef3f 9e3a 3b85 69bd
00000380: 9e8d f8bd 77c8 bcbd b8c9 f6bb 5165 473c
00000390: 074e 4abb 77ea 2b3b d675 c6bc 4177 11be
000003a0: b073 ecbd 474f c0bd 74b5 813c 4cb0 2b3d
000003b0: 2cae e5bd 145c 4b3d ff6f 1ebe 7d0a 1bbe
000003c0: cefd ebbd 9dec a2bd fb9d 523c 4c8a 9b3b
000003d0: 7ad4 853c 5aa2 cebd a0ae 19be 0916 18be
000003e0: 487a 71bd 49a8 09be 35da a5bb 6980 873b
000003f0: 0d59 1abe 6760 cabd ba21 083d 57a1 a43c
-0.080126524 -0.055004533 -0.015352924 -0.11125876 -0.12886898 -0.109510906 -0.05786509 -0.0021296719
-0.08185816 -0.10906938 -0.06563345 -0.0987093 -0.10513976 -0.11176738 -0.11769663 -0.08058495
-0.0034340178 0.025839712 0.02433962 -0.01149202 0.00753705 -0.10535096 0.015572825 0.022068294
-0.12599126 -0.005911129 -0.07829731 -0.01713618 -0.12371657 0.007676496 0.008695184 -0.08771059
-0.09595194 -0.09963552 -0.022179848 0.008899177 0.0087930765 0.006416804 -0.022689495 -0.1072409
-0.069587015 -0.11732709 0.0005848478 0.06885822 -0.05499744 0.044496335 -0.10555952 -0.06767745
-0.022829711 -0.02481259 0.01017661 0.0002683161 0.011566393 -0.10523949 -0.12156655 -0.09029458
-0.0015584367 -0.1251858 0.004732923 -0.059433497 -0.11065296 -0.082198605 0.03262378 0.0113157295
-0.08287432 0.12439991 -0.10658392 -0.00093059853 0.09646711 -0.008535462 0.13583799 -0.06923063
0.12043855 -0.0010072564 -0.021332487 0.0817792 0.115930535 -0.0238505 0.102339566 0.10870243
0.05352478 0.05420521 0.10914704 -0.12462061 -0.10497807 -0.013523447 0.029173253 -0.06697976
0.115626164 -0.14166707 0.08056728 -0.0042989254 0.037527245 -0.16925539 -0.05746242 0.13173641
0.019259125 0.1169523 -0.066218935 -0.15059596 -0.030655097 -0.022623008 -0.06560408 0.046226192
0.052212358 0.01195008 -0.066440016 0.056380298 0.041729752 0.12851803 -0.00759173 0.08719964
-0.01291741 0.0878881 -0.07436162 -0.10785435 -0.07621711 0.091710776 -0.0008010923 0.12269681
-0.0059687914 -0.040755652 -0.06505581 0.0039619263 0.0740805 0.1130469 0.02230189 -0.07492175
-0.08250298 -0.056239035 -0.013649539 -0.10149425 -0.11213739 -0.04389714 -0.07346013 0.0022656922
-0.07813754 -0.088397235 -0.048298594 -0.08393154 -0.08340007 -0.09570457 -0.09136081 -0.107645325
0.00056454935 0.01162138 0.021014301 -0.004665448 0.003056637 -0.05116483 0.0070770257 0.01821283
-0.11207363 -0.005708495 -0.08295773 -0.008535169 -0.097997844 0.007000552 0.0057492936 -0.02336117
-0.07257402 -0.10486425 -0.011193696 0.009348804 0.0004307308 0.0010741892 -0.0020164412 -0.07572451
-0.088174544 -0.1018714 0.0030203986 0.033692874 -0.038519144 0.031069482 -0.09752902 -0.098650016
-0.040274635 -0.07626192 0.005913249 -0.00011595535 0.008170665 -0.09301841 -0.102541275 -0.083230875
-0.020767538 -0.11102325 -0.011936092 0.031194773 -0.10554583 -0.059923995 0.011591161 0.011513819
-0.08784422 -0.014325227 -0.020744555 -0.14054562 -0.16592735 -0.122669056 -0.054216746 -0.013054899
-0.12840873 -0.11730819 -0.1072738 -0.1118529 -0.09765373 -0.1444238 -0.14437863 -0.15067475
0.011521852 0.023834335 0.031657122 -0.010101155 0.0075565632 -0.12656607 -0.006435388 0.020650338
-0.1565983 -0.017685669 -0.08807518 -0.013198792 -0.14975475 0.010485687 0.0012073497 -0.057011824
-0.12136386 -0.09217923 -0.007531371 0.012170152 -0.0030869262 0.0026232281 -0.02422611 -0.14205648
-0.11545503 -0.09390121 0.015833594 0.041916177 -0.11214861 0.04964836 -0.1547241 -0.1514072
-0.11523019 -0.07955287 0.012855048 0.004746711 0.016336668 -0.1008956 -0.1500802 -0.14852156
-0.058954507 -0.13443102 -0.0050614127 0.0041351807 -0.15073033 -0.098816685 0.03323529 0.020096464

network.8.bias f4 [32]
00000000: 89cd c03e 1512 8a3d e85a 933e 18b3 703e
00000010: 8a76 063e 9722 d93d 48a0 063d cb5a c93e
00000020: 00a1 913e 7bbd f33d 6682 b43e ca48 9d3e
00000030: b3f4 1c3e a272 9d3e f219 823e 1d2e 743e
00000040: 5b84 9d3e edba 073e c055 1d3e 8c99 7a3e
00000050: e5ad ab3c 7182 dd3d d42f bb3d 6d6d c13b
00000060: b001 c23c 0959 913e ed2a dc3e 315e bd3e
00000070: 31ce 4f3e c9e1 853e e77f c43e 3e2f b43d
0.3765681 0.0674173 0.28780293 0.23505819 0.13131157 0.106023006 0.0328677 0.39327082
0.28443146 0.11901375 0.35255736 0.30719596 0.1532772 0.3075152 0.2541042 0.23845716
0.30765042 0.132549 0.15364742 0.24472636 0.020956943 0.10815895 0.09139982 0.005902937
0.023682445 0.2838824 0.430015 0.36985925 0.202935 0.26148823 0.38378832 0.08798073

network.10.weight f4 [32]
00000000: 4529 b23f 882b b03f 2fa7 b13f 870b ad3f
00000010: 39de b03f 3fbe af3f f344 b03f 4e46 b13f
00000020: 8231 b03f 2b7f b03f 55f4 b03f 17b4 b03f
00000030: 2ea5 b13f 942a ae3f efe1 b03f 5404 b03f
00000040: 4820 af3f deee af3f 012e b13f dc45 b33f
00000050: e137 b03f 014f b03f bd81 b13f 3646 b23f
00000060: f076 b03f fa23 aa3f 0a2e b23f b299 b03f
00000070: adbe b13f 399d b13f b1f4 b13f 5a58 b03f
1.3918844 1.3763285 1.3879145 1.3519143 1.3817817 1.3729934 1.3771042 1.384958
1.3765109 1.3788809 1.3824564 1.3804959 1.3878534 1.3606744 1.381895 1.3751321
1.3681726 1.3744771 1.3842164 1.4005694 1.3767053 1.377411 1.3867718 1.3927677
1.3786297 1.3292229 1.39203 1.3796904 1.3886315 1.3876106 1.3902799 1.3776963

network.10.bias f4 [32]
00000000: e259 c6be abdb c83e 9c33 c5be 967a c8be
00000010: 4648 c63e b509 c73e bdac c43e cae5 c7be
00000020: 8b99 c9be b15f c53e 42e1 cbbe da4e c6be
00000030: 2734 cb3e 953f c7be 2ce8 c73e ff14 ccbe
00000040: 2de4 c4be 78dc c43e 0bb8 cc3e abaa d03e
00000050: d4a6 c43e e604 c53e 3e47 c93e 4f8e ce3e
00000060: 3d9b c53e a946 c6be 9ecd c6be c4a3 c5be
00000070: 9315 d03e 322c c6be db07 c5be 6cf5 c43e
-0.3874045 0.39230093 -0.38515937 -0.39156026 0.38727015 0.38874593 0.3841304 -0.39042503
-0.39374956 0.3854957 -0.39820296 -0.38732034 0.39688227 -0.38915697 0.3904432 -0.3985977
-0.38455334 0.38449454 0.39984164 0.4075521 0.3840853 0.384803 0.39312166 0.40342948
0.38595 -0.38725784 -0.38828748 -0.38601506 0.4064146 -0.38705593 -0.38482556 0.38468492

network.10.running_mean f4 [32]
00000000: 07a2 d83f 22af 4a3f 370a b73f 1196 f53f
00000010: d70d 3d3f 58f1 323f f5d9 443f 24aa ba3f
00000020: 6f3f eb3f 30ac 493f a77c c83f a198 ca3f
00000030: 9a7f 443f d293 cf3f 4ea7 503f f2ff f83f
00000040: 2fb4 de3f 440d 423f 1b86 3f3f 28b0 353f
00000050: 1cdb 413f a8dd 3e3f 4fef 373f f632 2d3f
00000060: bb2c 3d3f c478 cd3f 59d5 9a3f 2728 d13f
00000070: 74f5 383f 9252 d53f 880d c53f ad93 473f
1.6924447 0.7917348 1.4299992 1.9186422 0.7384924 0.6989951 0.76895076 1.4583173
1.8378733 0.7877836 1.5663041 1.5827829 0.76757205 1.6216986 0.81505287 1.9453108
1.7398738 0.7580149 0.74814004 0.7097192 0.7572496 0.7455697 0.7184953 0.67655885
0.7389638 1.605248 1.2096359 1.6340379 0.7224953 1.6665823 1.5394754 0.7795971

network.10.running_var f4 [32]
00000000: 02d6 043f 7e48 9840 8ea9 be3e 486a 2f3f
00000010: bc11 8240 5804 5f40 a843 8b40 ca53 c23e
00000020: 831c 1f3f 851a 9340 7230 e43e 30b9 e93e
00000030: e0de 8940 47af f53e b31c a140 1f82 343f
00000040: 860e 0f3f 471c 8540 31c4 7f40 22d8 6b40
00000050: 7415 8940 f02d 8340 e8dd 7440 09e3 5d40
00000060: b4fc 8340 cf6a f13e ec7f 823e 6e46 f73e
00000070: aa07 7c40 c4ec 023f 66ea d93e 08b7 8d40
0.5188905 4.758849 0.37238735 0.6852155 4.064665 3.4846401 4.352009 0.3795455
0.6215288 4.5969872 0.4456821 0.456491 4.3084564 0.47985289 5.0347533 0.7051105
0.55881536 4.159702 3.9963496 3.6850667 4.283869 4.0993576 3.826044 3.4669821
4.1245975 0.471518 0.25488222 0.4829592 3.9379678 0.51142526 0.42561644 4.4285927

network.12.weight f4 [1, 32]
00000000: 8e40 f9be 4074 d43e d1b7 07bf 7659 cdbe
00000010: b0e5 f43e e76b e53e 3748 0b3f 4fdf e3be
00000020: 4abb d1be a434 003f 8701 c9be 58b4 f6be
00000030: 6dad cc3e fa9f debe db67 e03e 8b8c c4be
00000040: 0099 06bf 512b 083f 53aa c53e acb8 c03e
00000050: fec0 0a3f 5f2b 053f d265 d63e b811 c43e
00000060: 5582 ff3e 0fff d7be 0c1b f2be 9d11 02bf
00000070: b092 c03e dd59 fcbe 970f 09bf 18f0 043f
-0.48682064 0.41494942 -0.53014857 -0.40107316 0.47831488 0.44808885 0.54407066 -0.44506308
-0.40963203 0.50080323 -0.39258978 -0.48184466 0.39976063 -0.43481427 0.43829235 -0.38388476
-0.5257721 0.53191096 0.3860651 0.37640893 0.5420073 0.52019304 0.41874558 0.38294768
0.49904123 -0.42186782 -0.4728626 -0.50808126 0.37611914 -0.4928731 -0.53539413 0.51928854
